<?xml version="1.0" ?>
<net name="frozen_inference_graph" version="10">
	<layers>
		<layer id="0" name="image_tensor" type="Parameter" version="opset1">
			<data element_type="f32" shape="1,3,640,640"/>
			<output>
				<port id="0" precision="FP32">
					<dim>1</dim>
					<dim>3</dim>
					<dim>640</dim>
					<dim>640</dim>
				</port>
			</output>
		</layer>
		<layer id="1" name="image_tensor/reverse_input_channels29219/Concat29236_const" type="Const" version="opset1">
			<data element_type="f32" offset="0" shape="1,3,1,1" size="12"/>
			<output>
				<port id="1" precision="FP32">
					<dim>1</dim>
					<dim>3</dim>
					<dim>1</dim>
					<dim>1</dim>
				</port>
			</output>
		</layer>
		<layer id="2" name="Preprocessor/sub" type="Add" version="opset1">
			<input>
				<port id="0">
					<dim>1</dim>
					<dim>3</dim>
					<dim>640</dim>
					<dim>640</dim>
				</port>
				<port id="1">
					<dim>1</dim>
					<dim>3</dim>
					<dim>1</dim>
					<dim>1</dim>
				</port>
			</input>
			<output>
				<port id="2" precision="FP32">
					<dim>1</dim>
					<dim>3</dim>
					<dim>640</dim>
					<dim>640</dim>
				</port>
			</output>
		</layer>
		<layer id="3" name="image_tensor/reverse_input_channels/Concat29228_const" type="Const" version="opset1">
			<data element_type="f32" offset="12" shape="64,3,7,7" size="37632"/>
			<output>
				<port id="1" precision="FP32">
					<dim>64</dim>
					<dim>3</dim>
					<dim>7</dim>
					<dim>7</dim>
				</port>
			</output>
		</layer>
		<layer id="4" name="FeatureExtractor/resnet_v1_50/resnet_v1_50/conv1/Conv2D" type="Convolution" version="opset1">
			<data dilations="1,1" output_padding="0,0" pads_begin="3,3" pads_end="3,3" strides="2,2"/>
			<input>
				<port id="0">
					<dim>1</dim>
					<dim>3</dim>
					<dim>640</dim>
					<dim>640</dim>
				</port>
				<port id="1">
					<dim>64</dim>
					<dim>3</dim>
					<dim>7</dim>
					<dim>7</dim>
				</port>
			</input>
			<output>
				<port id="2" precision="FP32">
					<dim>1</dim>
					<dim>64</dim>
					<dim>320</dim>
					<dim>320</dim>
				</port>
			</output>
		</layer>
		<layer id="5" name="FeatureExtractor/resnet_v1_50/resnet_v1_50/conv1/Conv2D_bn_offset/Output_0/Data_/copy_const" type="Const" version="opset1">
			<data element_type="f32" offset="37644" shape="1,64,1,1" size="256"/>
			<output>
				<port id="1" precision="FP32">
					<dim>1</dim>
					<dim>64</dim>
					<dim>1</dim>
					<dim>1</dim>
				</port>
			</output>
		</layer>
		<layer id="6" name="FeatureExtractor/resnet_v1_50/resnet_v1_50/conv1/BatchNorm/FusedBatchNorm/Add" type="Add" version="opset1">
			<input>
				<port id="0">
					<dim>1</dim>
					<dim>64</dim>
					<dim>320</dim>
					<dim>320</dim>
				</port>
				<port id="1">
					<dim>1</dim>
					<dim>64</dim>
					<dim>1</dim>
					<dim>1</dim>
				</port>
			</input>
			<output>
				<port id="2" precision="FP32">
					<dim>1</dim>
					<dim>64</dim>
					<dim>320</dim>
					<dim>320</dim>
				</port>
			</output>
		</layer>
		<layer id="7" name="FeatureExtractor/resnet_v1_50/resnet_v1_50/conv1/Relu" type="ReLU" version="opset1">
			<input>
				<port id="0">
					<dim>1</dim>
					<dim>64</dim>
					<dim>320</dim>
					<dim>320</dim>
				</port>
			</input>
			<output>
				<port id="1" precision="FP32">
					<dim>1</dim>
					<dim>64</dim>
					<dim>320</dim>
					<dim>320</dim>
				</port>
			</output>
		</layer>
		<layer id="8" name="FeatureExtractor/resnet_v1_50/resnet_v1_50/pool1/MaxPool" type="MaxPool" version="opset1">
			<data auto_pad="same_upper" kernel="3,3" pads_begin="0,0" pads_end="1,1" strides="2,2"/>
			<input>
				<port id="0">
					<dim>1</dim>
					<dim>64</dim>
					<dim>320</dim>
					<dim>320</dim>
				</port>
			</input>
			<output>
				<port id="1" precision="FP32">
					<dim>1</dim>
					<dim>64</dim>
					<dim>160</dim>
					<dim>160</dim>
				</port>
			</output>
		</layer>
		<layer id="9" name="FeatureExtractor/resnet_v1_50/block1/unit_1/bottleneck_v1/shortcut/weights/read/_19__cf__22/Output_0/Data__const" type="Const" version="opset1">
			<data element_type="f32" offset="37900" shape="256,64,1,1" size="65536"/>
			<output>
				<port id="1" precision="FP32">
					<dim>256</dim>
					<dim>64</dim>
					<dim>1</dim>
					<dim>1</dim>
				</port>
			</output>
		</layer>
		<layer id="10" name="FeatureExtractor/resnet_v1_50/resnet_v1_50/block1/unit_1/bottleneck_v1/shortcut/Conv2D" type="Convolution" version="opset1">
			<data auto_pad="same_upper" dilations="1,1" output_padding="0,0" pads_begin="0,0" pads_end="0,0" strides="1,1"/>
			<input>
				<port id="0">
					<dim>1</dim>
					<dim>64</dim>
					<dim>160</dim>
					<dim>160</dim>
				</port>
				<port id="1">
					<dim>256</dim>
					<dim>64</dim>
					<dim>1</dim>
					<dim>1</dim>
				</port>
			</input>
			<output>
				<port id="2" precision="FP32">
					<dim>1</dim>
					<dim>256</dim>
					<dim>160</dim>
					<dim>160</dim>
				</port>
			</output>
		</layer>
		<layer id="11" name="FeatureExtractor/resnet_v1_50/resnet_v1_50/block1/unit_1/bottleneck_v1/shortcut/Conv2D_bn_offset/Output_0/Data_/copy_const" type="Const" version="opset1">
			<data element_type="f32" offset="103436" shape="1,256,1,1" size="1024"/>
			<output>
				<port id="1" precision="FP32">
					<dim>1</dim>
					<dim>256</dim>
					<dim>1</dim>
					<dim>1</dim>
				</port>
			</output>
		</layer>
		<layer id="12" name="FeatureExtractor/resnet_v1_50/resnet_v1_50/block1/unit_1/bottleneck_v1/shortcut/BatchNorm/FusedBatchNorm/Add" type="Add" version="opset1">
			<input>
				<port id="0">
					<dim>1</dim>
					<dim>256</dim>
					<dim>160</dim>
					<dim>160</dim>
				</port>
				<port id="1">
					<dim>1</dim>
					<dim>256</dim>
					<dim>1</dim>
					<dim>1</dim>
				</port>
			</input>
			<output>
				<port id="2" precision="FP32">
					<dim>1</dim>
					<dim>256</dim>
					<dim>160</dim>
					<dim>160</dim>
				</port>
			</output>
		</layer>
		<layer id="13" name="FeatureExtractor/resnet_v1_50/block1/unit_1/bottleneck_v1/conv1/weights/read/_4__cf__7/Output_0/Data__const" type="Const" version="opset1">
			<data element_type="f32" offset="104460" shape="64,64,1,1" size="16384"/>
			<output>
				<port id="1" precision="FP32">
					<dim>64</dim>
					<dim>64</dim>
					<dim>1</dim>
					<dim>1</dim>
				</port>
			</output>
		</layer>
		<layer id="14" name="FeatureExtractor/resnet_v1_50/resnet_v1_50/block1/unit_1/bottleneck_v1/conv1/Conv2D" type="Convolution" version="opset1">
			<data auto_pad="same_upper" dilations="1,1" output_padding="0,0" pads_begin="0,0" pads_end="0,0" strides="1,1"/>
			<input>
				<port id="0">
					<dim>1</dim>
					<dim>64</dim>
					<dim>160</dim>
					<dim>160</dim>
				</port>
				<port id="1">
					<dim>64</dim>
					<dim>64</dim>
					<dim>1</dim>
					<dim>1</dim>
				</port>
			</input>
			<output>
				<port id="2" precision="FP32">
					<dim>1</dim>
					<dim>64</dim>
					<dim>160</dim>
					<dim>160</dim>
				</port>
			</output>
		</layer>
		<layer id="15" name="FeatureExtractor/resnet_v1_50/resnet_v1_50/block1/unit_1/bottleneck_v1/conv1/Conv2D_bn_offset/Output_0/Data_/copy_const" type="Const" version="opset1">
			<data element_type="f32" offset="120844" shape="1,64,1,1" size="256"/>
			<output>
				<port id="1" precision="FP32">
					<dim>1</dim>
					<dim>64</dim>
					<dim>1</dim>
					<dim>1</dim>
				</port>
			</output>
		</layer>
		<layer id="16" name="FeatureExtractor/resnet_v1_50/resnet_v1_50/block1/unit_1/bottleneck_v1/conv1/BatchNorm/FusedBatchNorm/Add" type="Add" version="opset1">
			<input>
				<port id="0">
					<dim>1</dim>
					<dim>64</dim>
					<dim>160</dim>
					<dim>160</dim>
				</port>
				<port id="1">
					<dim>1</dim>
					<dim>64</dim>
					<dim>1</dim>
					<dim>1</dim>
				</port>
			</input>
			<output>
				<port id="2" precision="FP32">
					<dim>1</dim>
					<dim>64</dim>
					<dim>160</dim>
					<dim>160</dim>
				</port>
			</output>
		</layer>
		<layer id="17" name="FeatureExtractor/resnet_v1_50/resnet_v1_50/block1/unit_1/bottleneck_v1/conv1/Relu" type="ReLU" version="opset1">
			<input>
				<port id="0">
					<dim>1</dim>
					<dim>64</dim>
					<dim>160</dim>
					<dim>160</dim>
				</port>
			</input>
			<output>
				<port id="1" precision="FP32">
					<dim>1</dim>
					<dim>64</dim>
					<dim>160</dim>
					<dim>160</dim>
				</port>
			</output>
		</layer>
		<layer id="18" name="FeatureExtractor/resnet_v1_50/block1/unit_1/bottleneck_v1/conv2/weights/read/_9__cf__12/Output_0/Data__const" type="Const" version="opset1">
			<data element_type="f32" offset="121100" shape="64,64,3,3" size="147456"/>
			<output>
				<port id="1" precision="FP32">
					<dim>64</dim>
					<dim>64</dim>
					<dim>3</dim>
					<dim>3</dim>
				</port>
			</output>
		</layer>
		<layer id="19" name="FeatureExtractor/resnet_v1_50/resnet_v1_50/block1/unit_1/bottleneck_v1/conv2/Conv2D" type="Convolution" version="opset1">
			<data auto_pad="same_upper" dilations="1,1" output_padding="0,0" pads_begin="1,1" pads_end="1,1" strides="1,1"/>
			<input>
				<port id="0">
					<dim>1</dim>
					<dim>64</dim>
					<dim>160</dim>
					<dim>160</dim>
				</port>
				<port id="1">
					<dim>64</dim>
					<dim>64</dim>
					<dim>3</dim>
					<dim>3</dim>
				</port>
			</input>
			<output>
				<port id="2" precision="FP32">
					<dim>1</dim>
					<dim>64</dim>
					<dim>160</dim>
					<dim>160</dim>
				</port>
			</output>
		</layer>
		<layer id="20" name="FeatureExtractor/resnet_v1_50/resnet_v1_50/block1/unit_1/bottleneck_v1/conv2/Conv2D_bn_offset/Output_0/Data_/copy_const" type="Const" version="opset1">
			<data element_type="f32" offset="268556" shape="1,64,1,1" size="256"/>
			<output>
				<port id="1" precision="FP32">
					<dim>1</dim>
					<dim>64</dim>
					<dim>1</dim>
					<dim>1</dim>
				</port>
			</output>
		</layer>
		<layer id="21" name="FeatureExtractor/resnet_v1_50/resnet_v1_50/block1/unit_1/bottleneck_v1/conv2/BatchNorm/FusedBatchNorm/Add" type="Add" version="opset1">
			<input>
				<port id="0">
					<dim>1</dim>
					<dim>64</dim>
					<dim>160</dim>
					<dim>160</dim>
				</port>
				<port id="1">
					<dim>1</dim>
					<dim>64</dim>
					<dim>1</dim>
					<dim>1</dim>
				</port>
			</input>
			<output>
				<port id="2" precision="FP32">
					<dim>1</dim>
					<dim>64</dim>
					<dim>160</dim>
					<dim>160</dim>
				</port>
			</output>
		</layer>
		<layer id="22" name="FeatureExtractor/resnet_v1_50/resnet_v1_50/block1/unit_1/bottleneck_v1/conv2/Relu" type="ReLU" version="opset1">
			<input>
				<port id="0">
					<dim>1</dim>
					<dim>64</dim>
					<dim>160</dim>
					<dim>160</dim>
				</port>
			</input>
			<output>
				<port id="1" precision="FP32">
					<dim>1</dim>
					<dim>64</dim>
					<dim>160</dim>
					<dim>160</dim>
				</port>
			</output>
		</layer>
		<layer id="23" name="FeatureExtractor/resnet_v1_50/block1/unit_1/bottleneck_v1/conv3/weights/read/_14__cf__17/Output_0/Data__const" type="Const" version="opset1">
			<data element_type="f32" offset="268812" shape="256,64,1,1" size="65536"/>
			<output>
				<port id="1" precision="FP32">
					<dim>256</dim>
					<dim>64</dim>
					<dim>1</dim>
					<dim>1</dim>
				</port>
			</output>
		</layer>
		<layer id="24" name="FeatureExtractor/resnet_v1_50/resnet_v1_50/block1/unit_1/bottleneck_v1/conv3/Conv2D" type="Convolution" version="opset1">
			<data auto_pad="same_upper" dilations="1,1" output_padding="0,0" pads_begin="0,0" pads_end="0,0" strides="1,1"/>
			<input>
				<port id="0">
					<dim>1</dim>
					<dim>64</dim>
					<dim>160</dim>
					<dim>160</dim>
				</port>
				<port id="1">
					<dim>256</dim>
					<dim>64</dim>
					<dim>1</dim>
					<dim>1</dim>
				</port>
			</input>
			<output>
				<port id="2" precision="FP32">
					<dim>1</dim>
					<dim>256</dim>
					<dim>160</dim>
					<dim>160</dim>
				</port>
			</output>
		</layer>
		<layer id="25" name="FeatureExtractor/resnet_v1_50/resnet_v1_50/block1/unit_1/bottleneck_v1/conv3/Conv2D_bn_offset/Output_0/Data_/copy_const" type="Const" version="opset1">
			<data element_type="f32" offset="334348" shape="1,256,1,1" size="1024"/>
			<output>
				<port id="1" precision="FP32">
					<dim>1</dim>
					<dim>256</dim>
					<dim>1</dim>
					<dim>1</dim>
				</port>
			</output>
		</layer>
		<layer id="26" name="FeatureExtractor/resnet_v1_50/resnet_v1_50/block1/unit_1/bottleneck_v1/conv3/BatchNorm/FusedBatchNorm/Add" type="Add" version="opset1">
			<input>
				<port id="0">
					<dim>1</dim>
					<dim>256</dim>
					<dim>160</dim>
					<dim>160</dim>
				</port>
				<port id="1">
					<dim>1</dim>
					<dim>256</dim>
					<dim>1</dim>
					<dim>1</dim>
				</port>
			</input>
			<output>
				<port id="2" precision="FP32">
					<dim>1</dim>
					<dim>256</dim>
					<dim>160</dim>
					<dim>160</dim>
				</port>
			</output>
		</layer>
		<layer id="27" name="FeatureExtractor/resnet_v1_50/resnet_v1_50/block1/unit_1/bottleneck_v1/add" type="Add" version="opset1">
			<input>
				<port id="0">
					<dim>1</dim>
					<dim>256</dim>
					<dim>160</dim>
					<dim>160</dim>
				</port>
				<port id="1">
					<dim>1</dim>
					<dim>256</dim>
					<dim>160</dim>
					<dim>160</dim>
				</port>
			</input>
			<output>
				<port id="2" precision="FP32">
					<dim>1</dim>
					<dim>256</dim>
					<dim>160</dim>
					<dim>160</dim>
				</port>
			</output>
		</layer>
		<layer id="28" name="FeatureExtractor/resnet_v1_50/resnet_v1_50/block1/unit_1/bottleneck_v1/Relu" type="ReLU" version="opset1">
			<input>
				<port id="0">
					<dim>1</dim>
					<dim>256</dim>
					<dim>160</dim>
					<dim>160</dim>
				</port>
			</input>
			<output>
				<port id="1" precision="FP32">
					<dim>1</dim>
					<dim>256</dim>
					<dim>160</dim>
					<dim>160</dim>
				</port>
			</output>
		</layer>
		<layer id="29" name="FeatureExtractor/resnet_v1_50/block1/unit_2/bottleneck_v1/conv1/weights/read/_24__cf__27/Output_0/Data__const" type="Const" version="opset1">
			<data element_type="f32" offset="335372" shape="64,256,1,1" size="65536"/>
			<output>
				<port id="1" precision="FP32">
					<dim>64</dim>
					<dim>256</dim>
					<dim>1</dim>
					<dim>1</dim>
				</port>
			</output>
		</layer>
		<layer id="30" name="FeatureExtractor/resnet_v1_50/resnet_v1_50/block1/unit_2/bottleneck_v1/conv1/Conv2D" type="Convolution" version="opset1">
			<data auto_pad="same_upper" dilations="1,1" output_padding="0,0" pads_begin="0,0" pads_end="0,0" strides="1,1"/>
			<input>
				<port id="0">
					<dim>1</dim>
					<dim>256</dim>
					<dim>160</dim>
					<dim>160</dim>
				</port>
				<port id="1">
					<dim>64</dim>
					<dim>256</dim>
					<dim>1</dim>
					<dim>1</dim>
				</port>
			</input>
			<output>
				<port id="2" precision="FP32">
					<dim>1</dim>
					<dim>64</dim>
					<dim>160</dim>
					<dim>160</dim>
				</port>
			</output>
		</layer>
		<layer id="31" name="FeatureExtractor/resnet_v1_50/resnet_v1_50/block1/unit_2/bottleneck_v1/conv1/Conv2D_bn_offset/Output_0/Data_/copy_const" type="Const" version="opset1">
			<data element_type="f32" offset="400908" shape="1,64,1,1" size="256"/>
			<output>
				<port id="1" precision="FP32">
					<dim>1</dim>
					<dim>64</dim>
					<dim>1</dim>
					<dim>1</dim>
				</port>
			</output>
		</layer>
		<layer id="32" name="FeatureExtractor/resnet_v1_50/resnet_v1_50/block1/unit_2/bottleneck_v1/conv1/BatchNorm/FusedBatchNorm/Add" type="Add" version="opset1">
			<input>
				<port id="0">
					<dim>1</dim>
					<dim>64</dim>
					<dim>160</dim>
					<dim>160</dim>
				</port>
				<port id="1">
					<dim>1</dim>
					<dim>64</dim>
					<dim>1</dim>
					<dim>1</dim>
				</port>
			</input>
			<output>
				<port id="2" precision="FP32">
					<dim>1</dim>
					<dim>64</dim>
					<dim>160</dim>
					<dim>160</dim>
				</port>
			</output>
		</layer>
		<layer id="33" name="FeatureExtractor/resnet_v1_50/resnet_v1_50/block1/unit_2/bottleneck_v1/conv1/Relu" type="ReLU" version="opset1">
			<input>
				<port id="0">
					<dim>1</dim>
					<dim>64</dim>
					<dim>160</dim>
					<dim>160</dim>
				</port>
			</input>
			<output>
				<port id="1" precision="FP32">
					<dim>1</dim>
					<dim>64</dim>
					<dim>160</dim>
					<dim>160</dim>
				</port>
			</output>
		</layer>
		<layer id="34" name="FeatureExtractor/resnet_v1_50/block1/unit_2/bottleneck_v1/conv2/weights/read/_29__cf__32/Output_0/Data__const" type="Const" version="opset1">
			<data element_type="f32" offset="401164" shape="64,64,3,3" size="147456"/>
			<output>
				<port id="1" precision="FP32">
					<dim>64</dim>
					<dim>64</dim>
					<dim>3</dim>
					<dim>3</dim>
				</port>
			</output>
		</layer>
		<layer id="35" name="FeatureExtractor/resnet_v1_50/resnet_v1_50/block1/unit_2/bottleneck_v1/conv2/Conv2D" type="Convolution" version="opset1">
			<data auto_pad="same_upper" dilations="1,1" output_padding="0,0" pads_begin="1,1" pads_end="1,1" strides="1,1"/>
			<input>
				<port id="0">
					<dim>1</dim>
					<dim>64</dim>
					<dim>160</dim>
					<dim>160</dim>
				</port>
				<port id="1">
					<dim>64</dim>
					<dim>64</dim>
					<dim>3</dim>
					<dim>3</dim>
				</port>
			</input>
			<output>
				<port id="2" precision="FP32">
					<dim>1</dim>
					<dim>64</dim>
					<dim>160</dim>
					<dim>160</dim>
				</port>
			</output>
		</layer>
		<layer id="36" name="FeatureExtractor/resnet_v1_50/resnet_v1_50/block1/unit_2/bottleneck_v1/conv2/Conv2D_bn_offset/Output_0/Data_/copy_const" type="Const" version="opset1">
			<data element_type="f32" offset="548620" shape="1,64,1,1" size="256"/>
			<output>
				<port id="1" precision="FP32">
					<dim>1</dim>
					<dim>64</dim>
					<dim>1</dim>
					<dim>1</dim>
				</port>
			</output>
		</layer>
		<layer id="37" name="FeatureExtractor/resnet_v1_50/resnet_v1_50/block1/unit_2/bottleneck_v1/conv2/BatchNorm/FusedBatchNorm/Add" type="Add" version="opset1">
			<input>
				<port id="0">
					<dim>1</dim>
					<dim>64</dim>
					<dim>160</dim>
					<dim>160</dim>
				</port>
				<port id="1">
					<dim>1</dim>
					<dim>64</dim>
					<dim>1</dim>
					<dim>1</dim>
				</port>
			</input>
			<output>
				<port id="2" precision="FP32">
					<dim>1</dim>
					<dim>64</dim>
					<dim>160</dim>
					<dim>160</dim>
				</port>
			</output>
		</layer>
		<layer id="38" name="FeatureExtractor/resnet_v1_50/resnet_v1_50/block1/unit_2/bottleneck_v1/conv2/Relu" type="ReLU" version="opset1">
			<input>
				<port id="0">
					<dim>1</dim>
					<dim>64</dim>
					<dim>160</dim>
					<dim>160</dim>
				</port>
			</input>
			<output>
				<port id="1" precision="FP32">
					<dim>1</dim>
					<dim>64</dim>
					<dim>160</dim>
					<dim>160</dim>
				</port>
			</output>
		</layer>
		<layer id="39" name="FeatureExtractor/resnet_v1_50/block1/unit_2/bottleneck_v1/conv3/weights/read/_34__cf__37/Output_0/Data__const" type="Const" version="opset1">
			<data element_type="f32" offset="548876" shape="256,64,1,1" size="65536"/>
			<output>
				<port id="1" precision="FP32">
					<dim>256</dim>
					<dim>64</dim>
					<dim>1</dim>
					<dim>1</dim>
				</port>
			</output>
		</layer>
		<layer id="40" name="FeatureExtractor/resnet_v1_50/resnet_v1_50/block1/unit_2/bottleneck_v1/conv3/Conv2D" type="Convolution" version="opset1">
			<data auto_pad="same_upper" dilations="1,1" output_padding="0,0" pads_begin="0,0" pads_end="0,0" strides="1,1"/>
			<input>
				<port id="0">
					<dim>1</dim>
					<dim>64</dim>
					<dim>160</dim>
					<dim>160</dim>
				</port>
				<port id="1">
					<dim>256</dim>
					<dim>64</dim>
					<dim>1</dim>
					<dim>1</dim>
				</port>
			</input>
			<output>
				<port id="2" precision="FP32">
					<dim>1</dim>
					<dim>256</dim>
					<dim>160</dim>
					<dim>160</dim>
				</port>
			</output>
		</layer>
		<layer id="41" name="FeatureExtractor/resnet_v1_50/resnet_v1_50/block1/unit_2/bottleneck_v1/conv3/Conv2D_bn_offset/Output_0/Data_/copy_const" type="Const" version="opset1">
			<data element_type="f32" offset="614412" shape="1,256,1,1" size="1024"/>
			<output>
				<port id="1" precision="FP32">
					<dim>1</dim>
					<dim>256</dim>
					<dim>1</dim>
					<dim>1</dim>
				</port>
			</output>
		</layer>
		<layer id="42" name="FeatureExtractor/resnet_v1_50/resnet_v1_50/block1/unit_2/bottleneck_v1/conv3/BatchNorm/FusedBatchNorm/Add" type="Add" version="opset1">
			<input>
				<port id="0">
					<dim>1</dim>
					<dim>256</dim>
					<dim>160</dim>
					<dim>160</dim>
				</port>
				<port id="1">
					<dim>1</dim>
					<dim>256</dim>
					<dim>1</dim>
					<dim>1</dim>
				</port>
			</input>
			<output>
				<port id="2" precision="FP32">
					<dim>1</dim>
					<dim>256</dim>
					<dim>160</dim>
					<dim>160</dim>
				</port>
			</output>
		</layer>
		<layer id="43" name="FeatureExtractor/resnet_v1_50/resnet_v1_50/block1/unit_2/bottleneck_v1/add" type="Add" version="opset1">
			<input>
				<port id="0">
					<dim>1</dim>
					<dim>256</dim>
					<dim>160</dim>
					<dim>160</dim>
				</port>
				<port id="1">
					<dim>1</dim>
					<dim>256</dim>
					<dim>160</dim>
					<dim>160</dim>
				</port>
			</input>
			<output>
				<port id="2" precision="FP32">
					<dim>1</dim>
					<dim>256</dim>
					<dim>160</dim>
					<dim>160</dim>
				</port>
			</output>
		</layer>
		<layer id="44" name="FeatureExtractor/resnet_v1_50/resnet_v1_50/block1/unit_2/bottleneck_v1/Relu" type="ReLU" version="opset1">
			<input>
				<port id="0">
					<dim>1</dim>
					<dim>256</dim>
					<dim>160</dim>
					<dim>160</dim>
				</port>
			</input>
			<output>
				<port id="1" precision="FP32">
					<dim>1</dim>
					<dim>256</dim>
					<dim>160</dim>
					<dim>160</dim>
				</port>
			</output>
		</layer>
		<layer id="45" name="FeatureExtractor/resnet_v1_50/block1/unit_3/bottleneck_v1/conv1/weights/read/_39__cf__42/Output_0/Data__const" type="Const" version="opset1">
			<data element_type="f32" offset="615436" shape="64,256,1,1" size="65536"/>
			<output>
				<port id="1" precision="FP32">
					<dim>64</dim>
					<dim>256</dim>
					<dim>1</dim>
					<dim>1</dim>
				</port>
			</output>
		</layer>
		<layer id="46" name="FeatureExtractor/resnet_v1_50/resnet_v1_50/block1/unit_3/bottleneck_v1/conv1/Conv2D" type="Convolution" version="opset1">
			<data auto_pad="same_upper" dilations="1,1" output_padding="0,0" pads_begin="0,0" pads_end="0,0" strides="1,1"/>
			<input>
				<port id="0">
					<dim>1</dim>
					<dim>256</dim>
					<dim>160</dim>
					<dim>160</dim>
				</port>
				<port id="1">
					<dim>64</dim>
					<dim>256</dim>
					<dim>1</dim>
					<dim>1</dim>
				</port>
			</input>
			<output>
				<port id="2" precision="FP32">
					<dim>1</dim>
					<dim>64</dim>
					<dim>160</dim>
					<dim>160</dim>
				</port>
			</output>
		</layer>
		<layer id="47" name="FeatureExtractor/resnet_v1_50/resnet_v1_50/block1/unit_3/bottleneck_v1/conv1/Conv2D_bn_offset/Output_0/Data_/copy_const" type="Const" version="opset1">
			<data element_type="f32" offset="680972" shape="1,64,1,1" size="256"/>
			<output>
				<port id="1" precision="FP32">
					<dim>1</dim>
					<dim>64</dim>
					<dim>1</dim>
					<dim>1</dim>
				</port>
			</output>
		</layer>
		<layer id="48" name="FeatureExtractor/resnet_v1_50/resnet_v1_50/block1/unit_3/bottleneck_v1/conv1/BatchNorm/FusedBatchNorm/Add" type="Add" version="opset1">
			<input>
				<port id="0">
					<dim>1</dim>
					<dim>64</dim>
					<dim>160</dim>
					<dim>160</dim>
				</port>
				<port id="1">
					<dim>1</dim>
					<dim>64</dim>
					<dim>1</dim>
					<dim>1</dim>
				</port>
			</input>
			<output>
				<port id="2" precision="FP32">
					<dim>1</dim>
					<dim>64</dim>
					<dim>160</dim>
					<dim>160</dim>
				</port>
			</output>
		</layer>
		<layer id="49" name="FeatureExtractor/resnet_v1_50/resnet_v1_50/block1/unit_3/bottleneck_v1/conv1/Relu" type="ReLU" version="opset1">
			<input>
				<port id="0">
					<dim>1</dim>
					<dim>64</dim>
					<dim>160</dim>
					<dim>160</dim>
				</port>
			</input>
			<output>
				<port id="1" precision="FP32">
					<dim>1</dim>
					<dim>64</dim>
					<dim>160</dim>
					<dim>160</dim>
				</port>
			</output>
		</layer>
		<layer id="50" name="FeatureExtractor/resnet_v1_50/block1/unit_3/bottleneck_v1/conv2/weights/read/_44__cf__47/Output_0/Data__const" type="Const" version="opset1">
			<data element_type="f32" offset="681228" shape="64,64,3,3" size="147456"/>
			<output>
				<port id="1" precision="FP32">
					<dim>64</dim>
					<dim>64</dim>
					<dim>3</dim>
					<dim>3</dim>
				</port>
			</output>
		</layer>
		<layer id="51" name="FeatureExtractor/resnet_v1_50/resnet_v1_50/block1/unit_3/bottleneck_v1/conv2/Conv2D" type="Convolution" version="opset1">
			<data auto_pad="same_upper" dilations="1,1" output_padding="0,0" pads_begin="1,1" pads_end="1,1" strides="1,1"/>
			<input>
				<port id="0">
					<dim>1</dim>
					<dim>64</dim>
					<dim>160</dim>
					<dim>160</dim>
				</port>
				<port id="1">
					<dim>64</dim>
					<dim>64</dim>
					<dim>3</dim>
					<dim>3</dim>
				</port>
			</input>
			<output>
				<port id="2" precision="FP32">
					<dim>1</dim>
					<dim>64</dim>
					<dim>160</dim>
					<dim>160</dim>
				</port>
			</output>
		</layer>
		<layer id="52" name="FeatureExtractor/resnet_v1_50/resnet_v1_50/block1/unit_3/bottleneck_v1/conv2/Conv2D_bn_offset/Output_0/Data_/copy_const" type="Const" version="opset1">
			<data element_type="f32" offset="828684" shape="1,64,1,1" size="256"/>
			<output>
				<port id="1" precision="FP32">
					<dim>1</dim>
					<dim>64</dim>
					<dim>1</dim>
					<dim>1</dim>
				</port>
			</output>
		</layer>
		<layer id="53" name="FeatureExtractor/resnet_v1_50/resnet_v1_50/block1/unit_3/bottleneck_v1/conv2/BatchNorm/FusedBatchNorm/Add" type="Add" version="opset1">
			<input>
				<port id="0">
					<dim>1</dim>
					<dim>64</dim>
					<dim>160</dim>
					<dim>160</dim>
				</port>
				<port id="1">
					<dim>1</dim>
					<dim>64</dim>
					<dim>1</dim>
					<dim>1</dim>
				</port>
			</input>
			<output>
				<port id="2" precision="FP32">
					<dim>1</dim>
					<dim>64</dim>
					<dim>160</dim>
					<dim>160</dim>
				</port>
			</output>
		</layer>
		<layer id="54" name="FeatureExtractor/resnet_v1_50/resnet_v1_50/block1/unit_3/bottleneck_v1/conv2/Relu" type="ReLU" version="opset1">
			<input>
				<port id="0">
					<dim>1</dim>
					<dim>64</dim>
					<dim>160</dim>
					<dim>160</dim>
				</port>
			</input>
			<output>
				<port id="1" precision="FP32">
					<dim>1</dim>
					<dim>64</dim>
					<dim>160</dim>
					<dim>160</dim>
				</port>
			</output>
		</layer>
		<layer id="55" name="FeatureExtractor/resnet_v1_50/block1/unit_3/bottleneck_v1/conv3/weights/read/_49__cf__52/Output_0/Data__const" type="Const" version="opset1">
			<data element_type="f32" offset="828940" shape="256,64,1,1" size="65536"/>
			<output>
				<port id="1" precision="FP32">
					<dim>256</dim>
					<dim>64</dim>
					<dim>1</dim>
					<dim>1</dim>
				</port>
			</output>
		</layer>
		<layer id="56" name="FeatureExtractor/resnet_v1_50/resnet_v1_50/block1/unit_3/bottleneck_v1/conv3/Conv2D" type="Convolution" version="opset1">
			<data auto_pad="same_upper" dilations="1,1" output_padding="0,0" pads_begin="0,0" pads_end="0,0" strides="1,1"/>
			<input>
				<port id="0">
					<dim>1</dim>
					<dim>64</dim>
					<dim>160</dim>
					<dim>160</dim>
				</port>
				<port id="1">
					<dim>256</dim>
					<dim>64</dim>
					<dim>1</dim>
					<dim>1</dim>
				</port>
			</input>
			<output>
				<port id="2" precision="FP32">
					<dim>1</dim>
					<dim>256</dim>
					<dim>160</dim>
					<dim>160</dim>
				</port>
			</output>
		</layer>
		<layer id="57" name="FeatureExtractor/resnet_v1_50/resnet_v1_50/block1/unit_3/bottleneck_v1/conv3/Conv2D_bn_offset/Output_0/Data_/copy_const" type="Const" version="opset1">
			<data element_type="f32" offset="894476" shape="1,256,1,1" size="1024"/>
			<output>
				<port id="1" precision="FP32">
					<dim>1</dim>
					<dim>256</dim>
					<dim>1</dim>
					<dim>1</dim>
				</port>
			</output>
		</layer>
		<layer id="58" name="FeatureExtractor/resnet_v1_50/resnet_v1_50/block1/unit_3/bottleneck_v1/conv3/BatchNorm/FusedBatchNorm/Add" type="Add" version="opset1">
			<input>
				<port id="0">
					<dim>1</dim>
					<dim>256</dim>
					<dim>160</dim>
					<dim>160</dim>
				</port>
				<port id="1">
					<dim>1</dim>
					<dim>256</dim>
					<dim>1</dim>
					<dim>1</dim>
				</port>
			</input>
			<output>
				<port id="2" precision="FP32">
					<dim>1</dim>
					<dim>256</dim>
					<dim>160</dim>
					<dim>160</dim>
				</port>
			</output>
		</layer>
		<layer id="59" name="FeatureExtractor/resnet_v1_50/resnet_v1_50/block1/unit_3/bottleneck_v1/add" type="Add" version="opset1">
			<input>
				<port id="0">
					<dim>1</dim>
					<dim>256</dim>
					<dim>160</dim>
					<dim>160</dim>
				</port>
				<port id="1">
					<dim>1</dim>
					<dim>256</dim>
					<dim>160</dim>
					<dim>160</dim>
				</port>
			</input>
			<output>
				<port id="2" precision="FP32">
					<dim>1</dim>
					<dim>256</dim>
					<dim>160</dim>
					<dim>160</dim>
				</port>
			</output>
		</layer>
		<layer id="60" name="FeatureExtractor/resnet_v1_50/resnet_v1_50/block1/unit_3/bottleneck_v1/Relu" type="ReLU" version="opset1">
			<input>
				<port id="0">
					<dim>1</dim>
					<dim>256</dim>
					<dim>160</dim>
					<dim>160</dim>
				</port>
			</input>
			<output>
				<port id="1" precision="FP32">
					<dim>1</dim>
					<dim>256</dim>
					<dim>160</dim>
					<dim>160</dim>
				</port>
			</output>
		</layer>
		<layer id="61" name="FeatureExtractor/resnet_v1_50/resnet_v1_50/block1/MaxPool2D/MaxPool" type="MaxPool" version="opset1">
			<data auto_pad="same_upper" kernel="1,1" pads_begin="0,0" pads_end="0,0" strides="2,2"/>
			<input>
				<port id="0">
					<dim>1</dim>
					<dim>256</dim>
					<dim>160</dim>
					<dim>160</dim>
				</port>
			</input>
			<output>
				<port id="1" precision="FP32">
					<dim>1</dim>
					<dim>256</dim>
					<dim>80</dim>
					<dim>80</dim>
				</port>
			</output>
		</layer>
		<layer id="62" name="FeatureExtractor/resnet_v1_50/block2/unit_1/bottleneck_v1/shortcut/weights/read/_69__cf__72/Output_0/Data__const" type="Const" version="opset1">
			<data element_type="f32" offset="895500" shape="512,256,1,1" size="524288"/>
			<output>
				<port id="1" precision="FP32">
					<dim>512</dim>
					<dim>256</dim>
					<dim>1</dim>
					<dim>1</dim>
				</port>
			</output>
		</layer>
		<layer id="63" name="FeatureExtractor/resnet_v1_50/resnet_v1_50/block2/unit_1/bottleneck_v1/shortcut/Conv2D" type="Convolution" version="opset1">
			<data auto_pad="same_upper" dilations="1,1" output_padding="0,0" pads_begin="0,0" pads_end="0,0" strides="1,1"/>
			<input>
				<port id="0">
					<dim>1</dim>
					<dim>256</dim>
					<dim>80</dim>
					<dim>80</dim>
				</port>
				<port id="1">
					<dim>512</dim>
					<dim>256</dim>
					<dim>1</dim>
					<dim>1</dim>
				</port>
			</input>
			<output>
				<port id="2" precision="FP32">
					<dim>1</dim>
					<dim>512</dim>
					<dim>80</dim>
					<dim>80</dim>
				</port>
			</output>
		</layer>
		<layer id="64" name="FeatureExtractor/resnet_v1_50/resnet_v1_50/block2/unit_1/bottleneck_v1/shortcut/Conv2D_bn_offset/Output_0/Data_/copy_const" type="Const" version="opset1">
			<data element_type="f32" offset="1419788" shape="1,512,1,1" size="2048"/>
			<output>
				<port id="1" precision="FP32">
					<dim>1</dim>
					<dim>512</dim>
					<dim>1</dim>
					<dim>1</dim>
				</port>
			</output>
		</layer>
		<layer id="65" name="FeatureExtractor/resnet_v1_50/resnet_v1_50/block2/unit_1/bottleneck_v1/shortcut/BatchNorm/FusedBatchNorm/Add" type="Add" version="opset1">
			<input>
				<port id="0">
					<dim>1</dim>
					<dim>512</dim>
					<dim>80</dim>
					<dim>80</dim>
				</port>
				<port id="1">
					<dim>1</dim>
					<dim>512</dim>
					<dim>1</dim>
					<dim>1</dim>
				</port>
			</input>
			<output>
				<port id="2" precision="FP32">
					<dim>1</dim>
					<dim>512</dim>
					<dim>80</dim>
					<dim>80</dim>
				</port>
			</output>
		</layer>
		<layer id="66" name="FeatureExtractor/resnet_v1_50/block2/unit_1/bottleneck_v1/conv1/weights/read/_54__cf__57/Output_0/Data__const" type="Const" version="opset1">
			<data element_type="f32" offset="1421836" shape="128,256,1,1" size="131072"/>
			<output>
				<port id="1" precision="FP32">
					<dim>128</dim>
					<dim>256</dim>
					<dim>1</dim>
					<dim>1</dim>
				</port>
			</output>
		</layer>
		<layer id="67" name="FeatureExtractor/resnet_v1_50/resnet_v1_50/block2/unit_1/bottleneck_v1/conv1/Conv2D" type="Convolution" version="opset1">
			<data auto_pad="same_upper" dilations="1,1" output_padding="0,0" pads_begin="0,0" pads_end="0,0" strides="1,1"/>
			<input>
				<port id="0">
					<dim>1</dim>
					<dim>256</dim>
					<dim>80</dim>
					<dim>80</dim>
				</port>
				<port id="1">
					<dim>128</dim>
					<dim>256</dim>
					<dim>1</dim>
					<dim>1</dim>
				</port>
			</input>
			<output>
				<port id="2" precision="FP32">
					<dim>1</dim>
					<dim>128</dim>
					<dim>80</dim>
					<dim>80</dim>
				</port>
			</output>
		</layer>
		<layer id="68" name="FeatureExtractor/resnet_v1_50/resnet_v1_50/block2/unit_1/bottleneck_v1/conv1/Conv2D_bn_offset/Output_0/Data_/copy_const" type="Const" version="opset1">
			<data element_type="f32" offset="1552908" shape="1,128,1,1" size="512"/>
			<output>
				<port id="1" precision="FP32">
					<dim>1</dim>
					<dim>128</dim>
					<dim>1</dim>
					<dim>1</dim>
				</port>
			</output>
		</layer>
		<layer id="69" name="FeatureExtractor/resnet_v1_50/resnet_v1_50/block2/unit_1/bottleneck_v1/conv1/BatchNorm/FusedBatchNorm/Add" type="Add" version="opset1">
			<input>
				<port id="0">
					<dim>1</dim>
					<dim>128</dim>
					<dim>80</dim>
					<dim>80</dim>
				</port>
				<port id="1">
					<dim>1</dim>
					<dim>128</dim>
					<dim>1</dim>
					<dim>1</dim>
				</port>
			</input>
			<output>
				<port id="2" precision="FP32">
					<dim>1</dim>
					<dim>128</dim>
					<dim>80</dim>
					<dim>80</dim>
				</port>
			</output>
		</layer>
		<layer id="70" name="FeatureExtractor/resnet_v1_50/resnet_v1_50/block2/unit_1/bottleneck_v1/conv1/Relu" type="ReLU" version="opset1">
			<input>
				<port id="0">
					<dim>1</dim>
					<dim>128</dim>
					<dim>80</dim>
					<dim>80</dim>
				</port>
			</input>
			<output>
				<port id="1" precision="FP32">
					<dim>1</dim>
					<dim>128</dim>
					<dim>80</dim>
					<dim>80</dim>
				</port>
			</output>
		</layer>
		<layer id="71" name="FeatureExtractor/resnet_v1_50/block2/unit_1/bottleneck_v1/conv2/weights/read/_59__cf__62/Output_0/Data__const" type="Const" version="opset1">
			<data element_type="f32" offset="1553420" shape="128,128,3,3" size="589824"/>
			<output>
				<port id="1" precision="FP32">
					<dim>128</dim>
					<dim>128</dim>
					<dim>3</dim>
					<dim>3</dim>
				</port>
			</output>
		</layer>
		<layer id="72" name="FeatureExtractor/resnet_v1_50/resnet_v1_50/block2/unit_1/bottleneck_v1/conv2/Conv2D" type="Convolution" version="opset1">
			<data auto_pad="same_upper" dilations="1,1" output_padding="0,0" pads_begin="1,1" pads_end="1,1" strides="1,1"/>
			<input>
				<port id="0">
					<dim>1</dim>
					<dim>128</dim>
					<dim>80</dim>
					<dim>80</dim>
				</port>
				<port id="1">
					<dim>128</dim>
					<dim>128</dim>
					<dim>3</dim>
					<dim>3</dim>
				</port>
			</input>
			<output>
				<port id="2" precision="FP32">
					<dim>1</dim>
					<dim>128</dim>
					<dim>80</dim>
					<dim>80</dim>
				</port>
			</output>
		</layer>
		<layer id="73" name="FeatureExtractor/resnet_v1_50/resnet_v1_50/block2/unit_1/bottleneck_v1/conv2/Conv2D_bn_offset/Output_0/Data_/copy_const" type="Const" version="opset1">
			<data element_type="f32" offset="2143244" shape="1,128,1,1" size="512"/>
			<output>
				<port id="1" precision="FP32">
					<dim>1</dim>
					<dim>128</dim>
					<dim>1</dim>
					<dim>1</dim>
				</port>
			</output>
		</layer>
		<layer id="74" name="FeatureExtractor/resnet_v1_50/resnet_v1_50/block2/unit_1/bottleneck_v1/conv2/BatchNorm/FusedBatchNorm/Add" type="Add" version="opset1">
			<input>
				<port id="0">
					<dim>1</dim>
					<dim>128</dim>
					<dim>80</dim>
					<dim>80</dim>
				</port>
				<port id="1">
					<dim>1</dim>
					<dim>128</dim>
					<dim>1</dim>
					<dim>1</dim>
				</port>
			</input>
			<output>
				<port id="2" precision="FP32">
					<dim>1</dim>
					<dim>128</dim>
					<dim>80</dim>
					<dim>80</dim>
				</port>
			</output>
		</layer>
		<layer id="75" name="FeatureExtractor/resnet_v1_50/resnet_v1_50/block2/unit_1/bottleneck_v1/conv2/Relu" type="ReLU" version="opset1">
			<input>
				<port id="0">
					<dim>1</dim>
					<dim>128</dim>
					<dim>80</dim>
					<dim>80</dim>
				</port>
			</input>
			<output>
				<port id="1" precision="FP32">
					<dim>1</dim>
					<dim>128</dim>
					<dim>80</dim>
					<dim>80</dim>
				</port>
			</output>
		</layer>
		<layer id="76" name="FeatureExtractor/resnet_v1_50/block2/unit_1/bottleneck_v1/conv3/weights/read/_64__cf__67/Output_0/Data__const" type="Const" version="opset1">
			<data element_type="f32" offset="2143756" shape="512,128,1,1" size="262144"/>
			<output>
				<port id="1" precision="FP32">
					<dim>512</dim>
					<dim>128</dim>
					<dim>1</dim>
					<dim>1</dim>
				</port>
			</output>
		</layer>
		<layer id="77" name="FeatureExtractor/resnet_v1_50/resnet_v1_50/block2/unit_1/bottleneck_v1/conv3/Conv2D" type="Convolution" version="opset1">
			<data auto_pad="same_upper" dilations="1,1" output_padding="0,0" pads_begin="0,0" pads_end="0,0" strides="1,1"/>
			<input>
				<port id="0">
					<dim>1</dim>
					<dim>128</dim>
					<dim>80</dim>
					<dim>80</dim>
				</port>
				<port id="1">
					<dim>512</dim>
					<dim>128</dim>
					<dim>1</dim>
					<dim>1</dim>
				</port>
			</input>
			<output>
				<port id="2" precision="FP32">
					<dim>1</dim>
					<dim>512</dim>
					<dim>80</dim>
					<dim>80</dim>
				</port>
			</output>
		</layer>
		<layer id="78" name="FeatureExtractor/resnet_v1_50/resnet_v1_50/block2/unit_1/bottleneck_v1/conv3/Conv2D_bn_offset/Output_0/Data_/copy_const" type="Const" version="opset1">
			<data element_type="f32" offset="2405900" shape="1,512,1,1" size="2048"/>
			<output>
				<port id="1" precision="FP32">
					<dim>1</dim>
					<dim>512</dim>
					<dim>1</dim>
					<dim>1</dim>
				</port>
			</output>
		</layer>
		<layer id="79" name="FeatureExtractor/resnet_v1_50/resnet_v1_50/block2/unit_1/bottleneck_v1/conv3/BatchNorm/FusedBatchNorm/Add" type="Add" version="opset1">
			<input>
				<port id="0">
					<dim>1</dim>
					<dim>512</dim>
					<dim>80</dim>
					<dim>80</dim>
				</port>
				<port id="1">
					<dim>1</dim>
					<dim>512</dim>
					<dim>1</dim>
					<dim>1</dim>
				</port>
			</input>
			<output>
				<port id="2" precision="FP32">
					<dim>1</dim>
					<dim>512</dim>
					<dim>80</dim>
					<dim>80</dim>
				</port>
			</output>
		</layer>
		<layer id="80" name="FeatureExtractor/resnet_v1_50/resnet_v1_50/block2/unit_1/bottleneck_v1/add" type="Add" version="opset1">
			<input>
				<port id="0">
					<dim>1</dim>
					<dim>512</dim>
					<dim>80</dim>
					<dim>80</dim>
				</port>
				<port id="1">
					<dim>1</dim>
					<dim>512</dim>
					<dim>80</dim>
					<dim>80</dim>
				</port>
			</input>
			<output>
				<port id="2" precision="FP32">
					<dim>1</dim>
					<dim>512</dim>
					<dim>80</dim>
					<dim>80</dim>
				</port>
			</output>
		</layer>
		<layer id="81" name="FeatureExtractor/resnet_v1_50/resnet_v1_50/block2/unit_1/bottleneck_v1/Relu" type="ReLU" version="opset1">
			<input>
				<port id="0">
					<dim>1</dim>
					<dim>512</dim>
					<dim>80</dim>
					<dim>80</dim>
				</port>
			</input>
			<output>
				<port id="1" precision="FP32">
					<dim>1</dim>
					<dim>512</dim>
					<dim>80</dim>
					<dim>80</dim>
				</port>
			</output>
		</layer>
		<layer id="82" name="FeatureExtractor/resnet_v1_50/block2/unit_2/bottleneck_v1/conv1/weights/read/_74__cf__77/Output_0/Data__const" type="Const" version="opset1">
			<data element_type="f32" offset="2407948" shape="128,512,1,1" size="262144"/>
			<output>
				<port id="1" precision="FP32">
					<dim>128</dim>
					<dim>512</dim>
					<dim>1</dim>
					<dim>1</dim>
				</port>
			</output>
		</layer>
		<layer id="83" name="FeatureExtractor/resnet_v1_50/resnet_v1_50/block2/unit_2/bottleneck_v1/conv1/Conv2D" type="Convolution" version="opset1">
			<data auto_pad="same_upper" dilations="1,1" output_padding="0,0" pads_begin="0,0" pads_end="0,0" strides="1,1"/>
			<input>
				<port id="0">
					<dim>1</dim>
					<dim>512</dim>
					<dim>80</dim>
					<dim>80</dim>
				</port>
				<port id="1">
					<dim>128</dim>
					<dim>512</dim>
					<dim>1</dim>
					<dim>1</dim>
				</port>
			</input>
			<output>
				<port id="2" precision="FP32">
					<dim>1</dim>
					<dim>128</dim>
					<dim>80</dim>
					<dim>80</dim>
				</port>
			</output>
		</layer>
		<layer id="84" name="FeatureExtractor/resnet_v1_50/resnet_v1_50/block2/unit_2/bottleneck_v1/conv1/Conv2D_bn_offset/Output_0/Data_/copy_const" type="Const" version="opset1">
			<data element_type="f32" offset="2670092" shape="1,128,1,1" size="512"/>
			<output>
				<port id="1" precision="FP32">
					<dim>1</dim>
					<dim>128</dim>
					<dim>1</dim>
					<dim>1</dim>
				</port>
			</output>
		</layer>
		<layer id="85" name="FeatureExtractor/resnet_v1_50/resnet_v1_50/block2/unit_2/bottleneck_v1/conv1/BatchNorm/FusedBatchNorm/Add" type="Add" version="opset1">
			<input>
				<port id="0">
					<dim>1</dim>
					<dim>128</dim>
					<dim>80</dim>
					<dim>80</dim>
				</port>
				<port id="1">
					<dim>1</dim>
					<dim>128</dim>
					<dim>1</dim>
					<dim>1</dim>
				</port>
			</input>
			<output>
				<port id="2" precision="FP32">
					<dim>1</dim>
					<dim>128</dim>
					<dim>80</dim>
					<dim>80</dim>
				</port>
			</output>
		</layer>
		<layer id="86" name="FeatureExtractor/resnet_v1_50/resnet_v1_50/block2/unit_2/bottleneck_v1/conv1/Relu" type="ReLU" version="opset1">
			<input>
				<port id="0">
					<dim>1</dim>
					<dim>128</dim>
					<dim>80</dim>
					<dim>80</dim>
				</port>
			</input>
			<output>
				<port id="1" precision="FP32">
					<dim>1</dim>
					<dim>128</dim>
					<dim>80</dim>
					<dim>80</dim>
				</port>
			</output>
		</layer>
		<layer id="87" name="FeatureExtractor/resnet_v1_50/block2/unit_2/bottleneck_v1/conv2/weights/read/_79__cf__82/Output_0/Data__const" type="Const" version="opset1">
			<data element_type="f32" offset="2670604" shape="128,128,3,3" size="589824"/>
			<output>
				<port id="1" precision="FP32">
					<dim>128</dim>
					<dim>128</dim>
					<dim>3</dim>
					<dim>3</dim>
				</port>
			</output>
		</layer>
		<layer id="88" name="FeatureExtractor/resnet_v1_50/resnet_v1_50/block2/unit_2/bottleneck_v1/conv2/Conv2D" type="Convolution" version="opset1">
			<data auto_pad="same_upper" dilations="1,1" output_padding="0,0" pads_begin="1,1" pads_end="1,1" strides="1,1"/>
			<input>
				<port id="0">
					<dim>1</dim>
					<dim>128</dim>
					<dim>80</dim>
					<dim>80</dim>
				</port>
				<port id="1">
					<dim>128</dim>
					<dim>128</dim>
					<dim>3</dim>
					<dim>3</dim>
				</port>
			</input>
			<output>
				<port id="2" precision="FP32">
					<dim>1</dim>
					<dim>128</dim>
					<dim>80</dim>
					<dim>80</dim>
				</port>
			</output>
		</layer>
		<layer id="89" name="FeatureExtractor/resnet_v1_50/resnet_v1_50/block2/unit_2/bottleneck_v1/conv2/Conv2D_bn_offset/Output_0/Data_/copy_const" type="Const" version="opset1">
			<data element_type="f32" offset="3260428" shape="1,128,1,1" size="512"/>
			<output>
				<port id="1" precision="FP32">
					<dim>1</dim>
					<dim>128</dim>
					<dim>1</dim>
					<dim>1</dim>
				</port>
			</output>
		</layer>
		<layer id="90" name="FeatureExtractor/resnet_v1_50/resnet_v1_50/block2/unit_2/bottleneck_v1/conv2/BatchNorm/FusedBatchNorm/Add" type="Add" version="opset1">
			<input>
				<port id="0">
					<dim>1</dim>
					<dim>128</dim>
					<dim>80</dim>
					<dim>80</dim>
				</port>
				<port id="1">
					<dim>1</dim>
					<dim>128</dim>
					<dim>1</dim>
					<dim>1</dim>
				</port>
			</input>
			<output>
				<port id="2" precision="FP32">
					<dim>1</dim>
					<dim>128</dim>
					<dim>80</dim>
					<dim>80</dim>
				</port>
			</output>
		</layer>
		<layer id="91" name="FeatureExtractor/resnet_v1_50/resnet_v1_50/block2/unit_2/bottleneck_v1/conv2/Relu" type="ReLU" version="opset1">
			<input>
				<port id="0">
					<dim>1</dim>
					<dim>128</dim>
					<dim>80</dim>
					<dim>80</dim>
				</port>
			</input>
			<output>
				<port id="1" precision="FP32">
					<dim>1</dim>
					<dim>128</dim>
					<dim>80</dim>
					<dim>80</dim>
				</port>
			</output>
		</layer>
		<layer id="92" name="FeatureExtractor/resnet_v1_50/block2/unit_2/bottleneck_v1/conv3/weights/read/_84__cf__87/Output_0/Data__const" type="Const" version="opset1">
			<data element_type="f32" offset="3260940" shape="512,128,1,1" size="262144"/>
			<output>
				<port id="1" precision="FP32">
					<dim>512</dim>
					<dim>128</dim>
					<dim>1</dim>
					<dim>1</dim>
				</port>
			</output>
		</layer>
		<layer id="93" name="FeatureExtractor/resnet_v1_50/resnet_v1_50/block2/unit_2/bottleneck_v1/conv3/Conv2D" type="Convolution" version="opset1">
			<data auto_pad="same_upper" dilations="1,1" output_padding="0,0" pads_begin="0,0" pads_end="0,0" strides="1,1"/>
			<input>
				<port id="0">
					<dim>1</dim>
					<dim>128</dim>
					<dim>80</dim>
					<dim>80</dim>
				</port>
				<port id="1">
					<dim>512</dim>
					<dim>128</dim>
					<dim>1</dim>
					<dim>1</dim>
				</port>
			</input>
			<output>
				<port id="2" precision="FP32">
					<dim>1</dim>
					<dim>512</dim>
					<dim>80</dim>
					<dim>80</dim>
				</port>
			</output>
		</layer>
		<layer id="94" name="FeatureExtractor/resnet_v1_50/resnet_v1_50/block2/unit_2/bottleneck_v1/conv3/Conv2D_bn_offset/Output_0/Data_/copy_const" type="Const" version="opset1">
			<data element_type="f32" offset="3523084" shape="1,512,1,1" size="2048"/>
			<output>
				<port id="1" precision="FP32">
					<dim>1</dim>
					<dim>512</dim>
					<dim>1</dim>
					<dim>1</dim>
				</port>
			</output>
		</layer>
		<layer id="95" name="FeatureExtractor/resnet_v1_50/resnet_v1_50/block2/unit_2/bottleneck_v1/conv3/BatchNorm/FusedBatchNorm/Add" type="Add" version="opset1">
			<input>
				<port id="0">
					<dim>1</dim>
					<dim>512</dim>
					<dim>80</dim>
					<dim>80</dim>
				</port>
				<port id="1">
					<dim>1</dim>
					<dim>512</dim>
					<dim>1</dim>
					<dim>1</dim>
				</port>
			</input>
			<output>
				<port id="2" precision="FP32">
					<dim>1</dim>
					<dim>512</dim>
					<dim>80</dim>
					<dim>80</dim>
				</port>
			</output>
		</layer>
		<layer id="96" name="FeatureExtractor/resnet_v1_50/resnet_v1_50/block2/unit_2/bottleneck_v1/add" type="Add" version="opset1">
			<input>
				<port id="0">
					<dim>1</dim>
					<dim>512</dim>
					<dim>80</dim>
					<dim>80</dim>
				</port>
				<port id="1">
					<dim>1</dim>
					<dim>512</dim>
					<dim>80</dim>
					<dim>80</dim>
				</port>
			</input>
			<output>
				<port id="2" precision="FP32">
					<dim>1</dim>
					<dim>512</dim>
					<dim>80</dim>
					<dim>80</dim>
				</port>
			</output>
		</layer>
		<layer id="97" name="FeatureExtractor/resnet_v1_50/resnet_v1_50/block2/unit_2/bottleneck_v1/Relu" type="ReLU" version="opset1">
			<input>
				<port id="0">
					<dim>1</dim>
					<dim>512</dim>
					<dim>80</dim>
					<dim>80</dim>
				</port>
			</input>
			<output>
				<port id="1" precision="FP32">
					<dim>1</dim>
					<dim>512</dim>
					<dim>80</dim>
					<dim>80</dim>
				</port>
			</output>
		</layer>
		<layer id="98" name="FeatureExtractor/resnet_v1_50/block2/unit_3/bottleneck_v1/conv1/weights/read/_89__cf__92/Output_0/Data__const" type="Const" version="opset1">
			<data element_type="f32" offset="3525132" shape="128,512,1,1" size="262144"/>
			<output>
				<port id="1" precision="FP32">
					<dim>128</dim>
					<dim>512</dim>
					<dim>1</dim>
					<dim>1</dim>
				</port>
			</output>
		</layer>
		<layer id="99" name="FeatureExtractor/resnet_v1_50/resnet_v1_50/block2/unit_3/bottleneck_v1/conv1/Conv2D" type="Convolution" version="opset1">
			<data auto_pad="same_upper" dilations="1,1" output_padding="0,0" pads_begin="0,0" pads_end="0,0" strides="1,1"/>
			<input>
				<port id="0">
					<dim>1</dim>
					<dim>512</dim>
					<dim>80</dim>
					<dim>80</dim>
				</port>
				<port id="1">
					<dim>128</dim>
					<dim>512</dim>
					<dim>1</dim>
					<dim>1</dim>
				</port>
			</input>
			<output>
				<port id="2" precision="FP32">
					<dim>1</dim>
					<dim>128</dim>
					<dim>80</dim>
					<dim>80</dim>
				</port>
			</output>
		</layer>
		<layer id="100" name="FeatureExtractor/resnet_v1_50/resnet_v1_50/block2/unit_3/bottleneck_v1/conv1/Conv2D_bn_offset/Output_0/Data_/copy_const" type="Const" version="opset1">
			<data element_type="f32" offset="3787276" shape="1,128,1,1" size="512"/>
			<output>
				<port id="1" precision="FP32">
					<dim>1</dim>
					<dim>128</dim>
					<dim>1</dim>
					<dim>1</dim>
				</port>
			</output>
		</layer>
		<layer id="101" name="FeatureExtractor/resnet_v1_50/resnet_v1_50/block2/unit_3/bottleneck_v1/conv1/BatchNorm/FusedBatchNorm/Add" type="Add" version="opset1">
			<input>
				<port id="0">
					<dim>1</dim>
					<dim>128</dim>
					<dim>80</dim>
					<dim>80</dim>
				</port>
				<port id="1">
					<dim>1</dim>
					<dim>128</dim>
					<dim>1</dim>
					<dim>1</dim>
				</port>
			</input>
			<output>
				<port id="2" precision="FP32">
					<dim>1</dim>
					<dim>128</dim>
					<dim>80</dim>
					<dim>80</dim>
				</port>
			</output>
		</layer>
		<layer id="102" name="FeatureExtractor/resnet_v1_50/resnet_v1_50/block2/unit_3/bottleneck_v1/conv1/Relu" type="ReLU" version="opset1">
			<input>
				<port id="0">
					<dim>1</dim>
					<dim>128</dim>
					<dim>80</dim>
					<dim>80</dim>
				</port>
			</input>
			<output>
				<port id="1" precision="FP32">
					<dim>1</dim>
					<dim>128</dim>
					<dim>80</dim>
					<dim>80</dim>
				</port>
			</output>
		</layer>
		<layer id="103" name="FeatureExtractor/resnet_v1_50/block2/unit_3/bottleneck_v1/conv2/weights/read/_94__cf__97/Output_0/Data__const" type="Const" version="opset1">
			<data element_type="f32" offset="3787788" shape="128,128,3,3" size="589824"/>
			<output>
				<port id="1" precision="FP32">
					<dim>128</dim>
					<dim>128</dim>
					<dim>3</dim>
					<dim>3</dim>
				</port>
			</output>
		</layer>
		<layer id="104" name="FeatureExtractor/resnet_v1_50/resnet_v1_50/block2/unit_3/bottleneck_v1/conv2/Conv2D" type="Convolution" version="opset1">
			<data auto_pad="same_upper" dilations="1,1" output_padding="0,0" pads_begin="1,1" pads_end="1,1" strides="1,1"/>
			<input>
				<port id="0">
					<dim>1</dim>
					<dim>128</dim>
					<dim>80</dim>
					<dim>80</dim>
				</port>
				<port id="1">
					<dim>128</dim>
					<dim>128</dim>
					<dim>3</dim>
					<dim>3</dim>
				</port>
			</input>
			<output>
				<port id="2" precision="FP32">
					<dim>1</dim>
					<dim>128</dim>
					<dim>80</dim>
					<dim>80</dim>
				</port>
			</output>
		</layer>
		<layer id="105" name="FeatureExtractor/resnet_v1_50/resnet_v1_50/block2/unit_3/bottleneck_v1/conv2/Conv2D_bn_offset/Output_0/Data_/copy_const" type="Const" version="opset1">
			<data element_type="f32" offset="4377612" shape="1,128,1,1" size="512"/>
			<output>
				<port id="1" precision="FP32">
					<dim>1</dim>
					<dim>128</dim>
					<dim>1</dim>
					<dim>1</dim>
				</port>
			</output>
		</layer>
		<layer id="106" name="FeatureExtractor/resnet_v1_50/resnet_v1_50/block2/unit_3/bottleneck_v1/conv2/BatchNorm/FusedBatchNorm/Add" type="Add" version="opset1">
			<input>
				<port id="0">
					<dim>1</dim>
					<dim>128</dim>
					<dim>80</dim>
					<dim>80</dim>
				</port>
				<port id="1">
					<dim>1</dim>
					<dim>128</dim>
					<dim>1</dim>
					<dim>1</dim>
				</port>
			</input>
			<output>
				<port id="2" precision="FP32">
					<dim>1</dim>
					<dim>128</dim>
					<dim>80</dim>
					<dim>80</dim>
				</port>
			</output>
		</layer>
		<layer id="107" name="FeatureExtractor/resnet_v1_50/resnet_v1_50/block2/unit_3/bottleneck_v1/conv2/Relu" type="ReLU" version="opset1">
			<input>
				<port id="0">
					<dim>1</dim>
					<dim>128</dim>
					<dim>80</dim>
					<dim>80</dim>
				</port>
			</input>
			<output>
				<port id="1" precision="FP32">
					<dim>1</dim>
					<dim>128</dim>
					<dim>80</dim>
					<dim>80</dim>
				</port>
			</output>
		</layer>
		<layer id="108" name="FeatureExtractor/resnet_v1_50/block2/unit_3/bottleneck_v1/conv3/weights/read/_99__cf__102/Output_0/Data__const" type="Const" version="opset1">
			<data element_type="f32" offset="4378124" shape="512,128,1,1" size="262144"/>
			<output>
				<port id="1" precision="FP32">
					<dim>512</dim>
					<dim>128</dim>
					<dim>1</dim>
					<dim>1</dim>
				</port>
			</output>
		</layer>
		<layer id="109" name="FeatureExtractor/resnet_v1_50/resnet_v1_50/block2/unit_3/bottleneck_v1/conv3/Conv2D" type="Convolution" version="opset1">
			<data auto_pad="same_upper" dilations="1,1" output_padding="0,0" pads_begin="0,0" pads_end="0,0" strides="1,1"/>
			<input>
				<port id="0">
					<dim>1</dim>
					<dim>128</dim>
					<dim>80</dim>
					<dim>80</dim>
				</port>
				<port id="1">
					<dim>512</dim>
					<dim>128</dim>
					<dim>1</dim>
					<dim>1</dim>
				</port>
			</input>
			<output>
				<port id="2" precision="FP32">
					<dim>1</dim>
					<dim>512</dim>
					<dim>80</dim>
					<dim>80</dim>
				</port>
			</output>
		</layer>
		<layer id="110" name="FeatureExtractor/resnet_v1_50/resnet_v1_50/block2/unit_3/bottleneck_v1/conv3/Conv2D_bn_offset/Output_0/Data_/copy_const" type="Const" version="opset1">
			<data element_type="f32" offset="4640268" shape="1,512,1,1" size="2048"/>
			<output>
				<port id="1" precision="FP32">
					<dim>1</dim>
					<dim>512</dim>
					<dim>1</dim>
					<dim>1</dim>
				</port>
			</output>
		</layer>
		<layer id="111" name="FeatureExtractor/resnet_v1_50/resnet_v1_50/block2/unit_3/bottleneck_v1/conv3/BatchNorm/FusedBatchNorm/Add" type="Add" version="opset1">
			<input>
				<port id="0">
					<dim>1</dim>
					<dim>512</dim>
					<dim>80</dim>
					<dim>80</dim>
				</port>
				<port id="1">
					<dim>1</dim>
					<dim>512</dim>
					<dim>1</dim>
					<dim>1</dim>
				</port>
			</input>
			<output>
				<port id="2" precision="FP32">
					<dim>1</dim>
					<dim>512</dim>
					<dim>80</dim>
					<dim>80</dim>
				</port>
			</output>
		</layer>
		<layer id="112" name="FeatureExtractor/resnet_v1_50/resnet_v1_50/block2/unit_3/bottleneck_v1/add" type="Add" version="opset1">
			<input>
				<port id="0">
					<dim>1</dim>
					<dim>512</dim>
					<dim>80</dim>
					<dim>80</dim>
				</port>
				<port id="1">
					<dim>1</dim>
					<dim>512</dim>
					<dim>80</dim>
					<dim>80</dim>
				</port>
			</input>
			<output>
				<port id="2" precision="FP32">
					<dim>1</dim>
					<dim>512</dim>
					<dim>80</dim>
					<dim>80</dim>
				</port>
			</output>
		</layer>
		<layer id="113" name="FeatureExtractor/resnet_v1_50/resnet_v1_50/block2/unit_3/bottleneck_v1/Relu" type="ReLU" version="opset1">
			<input>
				<port id="0">
					<dim>1</dim>
					<dim>512</dim>
					<dim>80</dim>
					<dim>80</dim>
				</port>
			</input>
			<output>
				<port id="1" precision="FP32">
					<dim>1</dim>
					<dim>512</dim>
					<dim>80</dim>
					<dim>80</dim>
				</port>
			</output>
		</layer>
		<layer id="114" name="FeatureExtractor/resnet_v1_50/block2/unit_4/bottleneck_v1/conv1/weights/read/_104__cf__107/Output_0/Data__const" type="Const" version="opset1">
			<data element_type="f32" offset="4642316" shape="128,512,1,1" size="262144"/>
			<output>
				<port id="1" precision="FP32">
					<dim>128</dim>
					<dim>512</dim>
					<dim>1</dim>
					<dim>1</dim>
				</port>
			</output>
		</layer>
		<layer id="115" name="FeatureExtractor/resnet_v1_50/resnet_v1_50/block2/unit_4/bottleneck_v1/conv1/Conv2D" type="Convolution" version="opset1">
			<data auto_pad="same_upper" dilations="1,1" output_padding="0,0" pads_begin="0,0" pads_end="0,0" strides="1,1"/>
			<input>
				<port id="0">
					<dim>1</dim>
					<dim>512</dim>
					<dim>80</dim>
					<dim>80</dim>
				</port>
				<port id="1">
					<dim>128</dim>
					<dim>512</dim>
					<dim>1</dim>
					<dim>1</dim>
				</port>
			</input>
			<output>
				<port id="2" precision="FP32">
					<dim>1</dim>
					<dim>128</dim>
					<dim>80</dim>
					<dim>80</dim>
				</port>
			</output>
		</layer>
		<layer id="116" name="FeatureExtractor/resnet_v1_50/resnet_v1_50/block2/unit_4/bottleneck_v1/conv1/Conv2D_bn_offset/Output_0/Data_/copy_const" type="Const" version="opset1">
			<data element_type="f32" offset="4904460" shape="1,128,1,1" size="512"/>
			<output>
				<port id="1" precision="FP32">
					<dim>1</dim>
					<dim>128</dim>
					<dim>1</dim>
					<dim>1</dim>
				</port>
			</output>
		</layer>
		<layer id="117" name="FeatureExtractor/resnet_v1_50/resnet_v1_50/block2/unit_4/bottleneck_v1/conv1/BatchNorm/FusedBatchNorm/Add" type="Add" version="opset1">
			<input>
				<port id="0">
					<dim>1</dim>
					<dim>128</dim>
					<dim>80</dim>
					<dim>80</dim>
				</port>
				<port id="1">
					<dim>1</dim>
					<dim>128</dim>
					<dim>1</dim>
					<dim>1</dim>
				</port>
			</input>
			<output>
				<port id="2" precision="FP32">
					<dim>1</dim>
					<dim>128</dim>
					<dim>80</dim>
					<dim>80</dim>
				</port>
			</output>
		</layer>
		<layer id="118" name="FeatureExtractor/resnet_v1_50/resnet_v1_50/block2/unit_4/bottleneck_v1/conv1/Relu" type="ReLU" version="opset1">
			<input>
				<port id="0">
					<dim>1</dim>
					<dim>128</dim>
					<dim>80</dim>
					<dim>80</dim>
				</port>
			</input>
			<output>
				<port id="1" precision="FP32">
					<dim>1</dim>
					<dim>128</dim>
					<dim>80</dim>
					<dim>80</dim>
				</port>
			</output>
		</layer>
		<layer id="119" name="FeatureExtractor/resnet_v1_50/block2/unit_4/bottleneck_v1/conv2/weights/read/_109__cf__112/Output_0/Data__const" type="Const" version="opset1">
			<data element_type="f32" offset="4904972" shape="128,128,3,3" size="589824"/>
			<output>
				<port id="1" precision="FP32">
					<dim>128</dim>
					<dim>128</dim>
					<dim>3</dim>
					<dim>3</dim>
				</port>
			</output>
		</layer>
		<layer id="120" name="FeatureExtractor/resnet_v1_50/resnet_v1_50/block2/unit_4/bottleneck_v1/conv2/Conv2D" type="Convolution" version="opset1">
			<data auto_pad="same_upper" dilations="1,1" output_padding="0,0" pads_begin="1,1" pads_end="1,1" strides="1,1"/>
			<input>
				<port id="0">
					<dim>1</dim>
					<dim>128</dim>
					<dim>80</dim>
					<dim>80</dim>
				</port>
				<port id="1">
					<dim>128</dim>
					<dim>128</dim>
					<dim>3</dim>
					<dim>3</dim>
				</port>
			</input>
			<output>
				<port id="2" precision="FP32">
					<dim>1</dim>
					<dim>128</dim>
					<dim>80</dim>
					<dim>80</dim>
				</port>
			</output>
		</layer>
		<layer id="121" name="FeatureExtractor/resnet_v1_50/resnet_v1_50/block2/unit_4/bottleneck_v1/conv2/Conv2D_bn_offset/Output_0/Data_/copy_const" type="Const" version="opset1">
			<data element_type="f32" offset="5494796" shape="1,128,1,1" size="512"/>
			<output>
				<port id="1" precision="FP32">
					<dim>1</dim>
					<dim>128</dim>
					<dim>1</dim>
					<dim>1</dim>
				</port>
			</output>
		</layer>
		<layer id="122" name="FeatureExtractor/resnet_v1_50/resnet_v1_50/block2/unit_4/bottleneck_v1/conv2/BatchNorm/FusedBatchNorm/Add" type="Add" version="opset1">
			<input>
				<port id="0">
					<dim>1</dim>
					<dim>128</dim>
					<dim>80</dim>
					<dim>80</dim>
				</port>
				<port id="1">
					<dim>1</dim>
					<dim>128</dim>
					<dim>1</dim>
					<dim>1</dim>
				</port>
			</input>
			<output>
				<port id="2" precision="FP32">
					<dim>1</dim>
					<dim>128</dim>
					<dim>80</dim>
					<dim>80</dim>
				</port>
			</output>
		</layer>
		<layer id="123" name="FeatureExtractor/resnet_v1_50/resnet_v1_50/block2/unit_4/bottleneck_v1/conv2/Relu" type="ReLU" version="opset1">
			<input>
				<port id="0">
					<dim>1</dim>
					<dim>128</dim>
					<dim>80</dim>
					<dim>80</dim>
				</port>
			</input>
			<output>
				<port id="1" precision="FP32">
					<dim>1</dim>
					<dim>128</dim>
					<dim>80</dim>
					<dim>80</dim>
				</port>
			</output>
		</layer>
		<layer id="124" name="FeatureExtractor/resnet_v1_50/block2/unit_4/bottleneck_v1/conv3/weights/read/_114__cf__117/Output_0/Data__const" type="Const" version="opset1">
			<data element_type="f32" offset="5495308" shape="512,128,1,1" size="262144"/>
			<output>
				<port id="1" precision="FP32">
					<dim>512</dim>
					<dim>128</dim>
					<dim>1</dim>
					<dim>1</dim>
				</port>
			</output>
		</layer>
		<layer id="125" name="FeatureExtractor/resnet_v1_50/resnet_v1_50/block2/unit_4/bottleneck_v1/conv3/Conv2D" type="Convolution" version="opset1">
			<data auto_pad="same_upper" dilations="1,1" output_padding="0,0" pads_begin="0,0" pads_end="0,0" strides="1,1"/>
			<input>
				<port id="0">
					<dim>1</dim>
					<dim>128</dim>
					<dim>80</dim>
					<dim>80</dim>
				</port>
				<port id="1">
					<dim>512</dim>
					<dim>128</dim>
					<dim>1</dim>
					<dim>1</dim>
				</port>
			</input>
			<output>
				<port id="2" precision="FP32">
					<dim>1</dim>
					<dim>512</dim>
					<dim>80</dim>
					<dim>80</dim>
				</port>
			</output>
		</layer>
		<layer id="126" name="FeatureExtractor/resnet_v1_50/resnet_v1_50/block2/unit_4/bottleneck_v1/conv3/Conv2D_bn_offset/Output_0/Data_/copy_const" type="Const" version="opset1">
			<data element_type="f32" offset="5757452" shape="1,512,1,1" size="2048"/>
			<output>
				<port id="1" precision="FP32">
					<dim>1</dim>
					<dim>512</dim>
					<dim>1</dim>
					<dim>1</dim>
				</port>
			</output>
		</layer>
		<layer id="127" name="FeatureExtractor/resnet_v1_50/resnet_v1_50/block2/unit_4/bottleneck_v1/conv3/BatchNorm/FusedBatchNorm/Add" type="Add" version="opset1">
			<input>
				<port id="0">
					<dim>1</dim>
					<dim>512</dim>
					<dim>80</dim>
					<dim>80</dim>
				</port>
				<port id="1">
					<dim>1</dim>
					<dim>512</dim>
					<dim>1</dim>
					<dim>1</dim>
				</port>
			</input>
			<output>
				<port id="2" precision="FP32">
					<dim>1</dim>
					<dim>512</dim>
					<dim>80</dim>
					<dim>80</dim>
				</port>
			</output>
		</layer>
		<layer id="128" name="FeatureExtractor/resnet_v1_50/resnet_v1_50/block2/unit_4/bottleneck_v1/add" type="Add" version="opset1">
			<input>
				<port id="0">
					<dim>1</dim>
					<dim>512</dim>
					<dim>80</dim>
					<dim>80</dim>
				</port>
				<port id="1">
					<dim>1</dim>
					<dim>512</dim>
					<dim>80</dim>
					<dim>80</dim>
				</port>
			</input>
			<output>
				<port id="2" precision="FP32">
					<dim>1</dim>
					<dim>512</dim>
					<dim>80</dim>
					<dim>80</dim>
				</port>
			</output>
		</layer>
		<layer id="129" name="FeatureExtractor/resnet_v1_50/resnet_v1_50/block2/unit_4/bottleneck_v1/Relu" type="ReLU" version="opset1">
			<input>
				<port id="0">
					<dim>1</dim>
					<dim>512</dim>
					<dim>80</dim>
					<dim>80</dim>
				</port>
			</input>
			<output>
				<port id="1" precision="FP32">
					<dim>1</dim>
					<dim>512</dim>
					<dim>80</dim>
					<dim>80</dim>
				</port>
			</output>
		</layer>
		<layer id="130" name="FeatureExtractor/resnet_v1_50/resnet_v1_50/block2/MaxPool2D/MaxPool" type="MaxPool" version="opset1">
			<data auto_pad="same_upper" kernel="1,1" pads_begin="0,0" pads_end="0,0" strides="2,2"/>
			<input>
				<port id="0">
					<dim>1</dim>
					<dim>512</dim>
					<dim>80</dim>
					<dim>80</dim>
				</port>
			</input>
			<output>
				<port id="1" precision="FP32">
					<dim>1</dim>
					<dim>512</dim>
					<dim>40</dim>
					<dim>40</dim>
				</port>
			</output>
		</layer>
		<layer id="131" name="FeatureExtractor/resnet_v1_50/block3/unit_1/bottleneck_v1/shortcut/weights/read/_134__cf__137/Output_0/Data__const" type="Const" version="opset1">
			<data element_type="f32" offset="5759500" shape="1024,512,1,1" size="2097152"/>
			<output>
				<port id="1" precision="FP32">
					<dim>1024</dim>
					<dim>512</dim>
					<dim>1</dim>
					<dim>1</dim>
				</port>
			</output>
		</layer>
		<layer id="132" name="FeatureExtractor/resnet_v1_50/resnet_v1_50/block3/unit_1/bottleneck_v1/shortcut/Conv2D" type="Convolution" version="opset1">
			<data auto_pad="same_upper" dilations="1,1" output_padding="0,0" pads_begin="0,0" pads_end="0,0" strides="1,1"/>
			<input>
				<port id="0">
					<dim>1</dim>
					<dim>512</dim>
					<dim>40</dim>
					<dim>40</dim>
				</port>
				<port id="1">
					<dim>1024</dim>
					<dim>512</dim>
					<dim>1</dim>
					<dim>1</dim>
				</port>
			</input>
			<output>
				<port id="2" precision="FP32">
					<dim>1</dim>
					<dim>1024</dim>
					<dim>40</dim>
					<dim>40</dim>
				</port>
			</output>
		</layer>
		<layer id="133" name="FeatureExtractor/resnet_v1_50/resnet_v1_50/block3/unit_1/bottleneck_v1/shortcut/Conv2D_bn_offset/Output_0/Data_/copy_const" type="Const" version="opset1">
			<data element_type="f32" offset="7856652" shape="1,1024,1,1" size="4096"/>
			<output>
				<port id="1" precision="FP32">
					<dim>1</dim>
					<dim>1024</dim>
					<dim>1</dim>
					<dim>1</dim>
				</port>
			</output>
		</layer>
		<layer id="134" name="FeatureExtractor/resnet_v1_50/resnet_v1_50/block3/unit_1/bottleneck_v1/shortcut/BatchNorm/FusedBatchNorm/Add" type="Add" version="opset1">
			<input>
				<port id="0">
					<dim>1</dim>
					<dim>1024</dim>
					<dim>40</dim>
					<dim>40</dim>
				</port>
				<port id="1">
					<dim>1</dim>
					<dim>1024</dim>
					<dim>1</dim>
					<dim>1</dim>
				</port>
			</input>
			<output>
				<port id="2" precision="FP32">
					<dim>1</dim>
					<dim>1024</dim>
					<dim>40</dim>
					<dim>40</dim>
				</port>
			</output>
		</layer>
		<layer id="135" name="FeatureExtractor/resnet_v1_50/block3/unit_1/bottleneck_v1/conv1/weights/read/_119__cf__122/Output_0/Data__const" type="Const" version="opset1">
			<data element_type="f32" offset="7860748" shape="256,512,1,1" size="524288"/>
			<output>
				<port id="1" precision="FP32">
					<dim>256</dim>
					<dim>512</dim>
					<dim>1</dim>
					<dim>1</dim>
				</port>
			</output>
		</layer>
		<layer id="136" name="FeatureExtractor/resnet_v1_50/resnet_v1_50/block3/unit_1/bottleneck_v1/conv1/Conv2D" type="Convolution" version="opset1">
			<data auto_pad="same_upper" dilations="1,1" output_padding="0,0" pads_begin="0,0" pads_end="0,0" strides="1,1"/>
			<input>
				<port id="0">
					<dim>1</dim>
					<dim>512</dim>
					<dim>40</dim>
					<dim>40</dim>
				</port>
				<port id="1">
					<dim>256</dim>
					<dim>512</dim>
					<dim>1</dim>
					<dim>1</dim>
				</port>
			</input>
			<output>
				<port id="2" precision="FP32">
					<dim>1</dim>
					<dim>256</dim>
					<dim>40</dim>
					<dim>40</dim>
				</port>
			</output>
		</layer>
		<layer id="137" name="FeatureExtractor/resnet_v1_50/resnet_v1_50/block3/unit_1/bottleneck_v1/conv1/Conv2D_bn_offset/Output_0/Data_/copy_const" type="Const" version="opset1">
			<data element_type="f32" offset="8385036" shape="1,256,1,1" size="1024"/>
			<output>
				<port id="1" precision="FP32">
					<dim>1</dim>
					<dim>256</dim>
					<dim>1</dim>
					<dim>1</dim>
				</port>
			</output>
		</layer>
		<layer id="138" name="FeatureExtractor/resnet_v1_50/resnet_v1_50/block3/unit_1/bottleneck_v1/conv1/BatchNorm/FusedBatchNorm/Add" type="Add" version="opset1">
			<input>
				<port id="0">
					<dim>1</dim>
					<dim>256</dim>
					<dim>40</dim>
					<dim>40</dim>
				</port>
				<port id="1">
					<dim>1</dim>
					<dim>256</dim>
					<dim>1</dim>
					<dim>1</dim>
				</port>
			</input>
			<output>
				<port id="2" precision="FP32">
					<dim>1</dim>
					<dim>256</dim>
					<dim>40</dim>
					<dim>40</dim>
				</port>
			</output>
		</layer>
		<layer id="139" name="FeatureExtractor/resnet_v1_50/resnet_v1_50/block3/unit_1/bottleneck_v1/conv1/Relu" type="ReLU" version="opset1">
			<input>
				<port id="0">
					<dim>1</dim>
					<dim>256</dim>
					<dim>40</dim>
					<dim>40</dim>
				</port>
			</input>
			<output>
				<port id="1" precision="FP32">
					<dim>1</dim>
					<dim>256</dim>
					<dim>40</dim>
					<dim>40</dim>
				</port>
			</output>
		</layer>
		<layer id="140" name="FeatureExtractor/resnet_v1_50/block3/unit_1/bottleneck_v1/conv2/weights/read/_124__cf__127/Output_0/Data__const" type="Const" version="opset1">
			<data element_type="f32" offset="8386060" shape="256,256,3,3" size="2359296"/>
			<output>
				<port id="1" precision="FP32">
					<dim>256</dim>
					<dim>256</dim>
					<dim>3</dim>
					<dim>3</dim>
				</port>
			</output>
		</layer>
		<layer id="141" name="FeatureExtractor/resnet_v1_50/resnet_v1_50/block3/unit_1/bottleneck_v1/conv2/Conv2D" type="Convolution" version="opset1">
			<data auto_pad="same_upper" dilations="1,1" output_padding="0,0" pads_begin="1,1" pads_end="1,1" strides="1,1"/>
			<input>
				<port id="0">
					<dim>1</dim>
					<dim>256</dim>
					<dim>40</dim>
					<dim>40</dim>
				</port>
				<port id="1">
					<dim>256</dim>
					<dim>256</dim>
					<dim>3</dim>
					<dim>3</dim>
				</port>
			</input>
			<output>
				<port id="2" precision="FP32">
					<dim>1</dim>
					<dim>256</dim>
					<dim>40</dim>
					<dim>40</dim>
				</port>
			</output>
		</layer>
		<layer id="142" name="FeatureExtractor/resnet_v1_50/resnet_v1_50/block3/unit_1/bottleneck_v1/conv2/Conv2D_bn_offset/Output_0/Data_/copy_const" type="Const" version="opset1">
			<data element_type="f32" offset="10745356" shape="1,256,1,1" size="1024"/>
			<output>
				<port id="1" precision="FP32">
					<dim>1</dim>
					<dim>256</dim>
					<dim>1</dim>
					<dim>1</dim>
				</port>
			</output>
		</layer>
		<layer id="143" name="FeatureExtractor/resnet_v1_50/resnet_v1_50/block3/unit_1/bottleneck_v1/conv2/BatchNorm/FusedBatchNorm/Add" type="Add" version="opset1">
			<input>
				<port id="0">
					<dim>1</dim>
					<dim>256</dim>
					<dim>40</dim>
					<dim>40</dim>
				</port>
				<port id="1">
					<dim>1</dim>
					<dim>256</dim>
					<dim>1</dim>
					<dim>1</dim>
				</port>
			</input>
			<output>
				<port id="2" precision="FP32">
					<dim>1</dim>
					<dim>256</dim>
					<dim>40</dim>
					<dim>40</dim>
				</port>
			</output>
		</layer>
		<layer id="144" name="FeatureExtractor/resnet_v1_50/resnet_v1_50/block3/unit_1/bottleneck_v1/conv2/Relu" type="ReLU" version="opset1">
			<input>
				<port id="0">
					<dim>1</dim>
					<dim>256</dim>
					<dim>40</dim>
					<dim>40</dim>
				</port>
			</input>
			<output>
				<port id="1" precision="FP32">
					<dim>1</dim>
					<dim>256</dim>
					<dim>40</dim>
					<dim>40</dim>
				</port>
			</output>
		</layer>
		<layer id="145" name="FeatureExtractor/resnet_v1_50/block3/unit_1/bottleneck_v1/conv3/weights/read/_129__cf__132/Output_0/Data__const" type="Const" version="opset1">
			<data element_type="f32" offset="10746380" shape="1024,256,1,1" size="1048576"/>
			<output>
				<port id="1" precision="FP32">
					<dim>1024</dim>
					<dim>256</dim>
					<dim>1</dim>
					<dim>1</dim>
				</port>
			</output>
		</layer>
		<layer id="146" name="FeatureExtractor/resnet_v1_50/resnet_v1_50/block3/unit_1/bottleneck_v1/conv3/Conv2D" type="Convolution" version="opset1">
			<data auto_pad="same_upper" dilations="1,1" output_padding="0,0" pads_begin="0,0" pads_end="0,0" strides="1,1"/>
			<input>
				<port id="0">
					<dim>1</dim>
					<dim>256</dim>
					<dim>40</dim>
					<dim>40</dim>
				</port>
				<port id="1">
					<dim>1024</dim>
					<dim>256</dim>
					<dim>1</dim>
					<dim>1</dim>
				</port>
			</input>
			<output>
				<port id="2" precision="FP32">
					<dim>1</dim>
					<dim>1024</dim>
					<dim>40</dim>
					<dim>40</dim>
				</port>
			</output>
		</layer>
		<layer id="147" name="FeatureExtractor/resnet_v1_50/resnet_v1_50/block3/unit_1/bottleneck_v1/conv3/Conv2D_bn_offset/Output_0/Data_/copy_const" type="Const" version="opset1">
			<data element_type="f32" offset="11794956" shape="1,1024,1,1" size="4096"/>
			<output>
				<port id="1" precision="FP32">
					<dim>1</dim>
					<dim>1024</dim>
					<dim>1</dim>
					<dim>1</dim>
				</port>
			</output>
		</layer>
		<layer id="148" name="FeatureExtractor/resnet_v1_50/resnet_v1_50/block3/unit_1/bottleneck_v1/conv3/BatchNorm/FusedBatchNorm/Add" type="Add" version="opset1">
			<input>
				<port id="0">
					<dim>1</dim>
					<dim>1024</dim>
					<dim>40</dim>
					<dim>40</dim>
				</port>
				<port id="1">
					<dim>1</dim>
					<dim>1024</dim>
					<dim>1</dim>
					<dim>1</dim>
				</port>
			</input>
			<output>
				<port id="2" precision="FP32">
					<dim>1</dim>
					<dim>1024</dim>
					<dim>40</dim>
					<dim>40</dim>
				</port>
			</output>
		</layer>
		<layer id="149" name="FeatureExtractor/resnet_v1_50/resnet_v1_50/block3/unit_1/bottleneck_v1/add" type="Add" version="opset1">
			<input>
				<port id="0">
					<dim>1</dim>
					<dim>1024</dim>
					<dim>40</dim>
					<dim>40</dim>
				</port>
				<port id="1">
					<dim>1</dim>
					<dim>1024</dim>
					<dim>40</dim>
					<dim>40</dim>
				</port>
			</input>
			<output>
				<port id="2" precision="FP32">
					<dim>1</dim>
					<dim>1024</dim>
					<dim>40</dim>
					<dim>40</dim>
				</port>
			</output>
		</layer>
		<layer id="150" name="FeatureExtractor/resnet_v1_50/resnet_v1_50/block3/unit_1/bottleneck_v1/Relu" type="ReLU" version="opset1">
			<input>
				<port id="0">
					<dim>1</dim>
					<dim>1024</dim>
					<dim>40</dim>
					<dim>40</dim>
				</port>
			</input>
			<output>
				<port id="1" precision="FP32">
					<dim>1</dim>
					<dim>1024</dim>
					<dim>40</dim>
					<dim>40</dim>
				</port>
			</output>
		</layer>
		<layer id="151" name="FeatureExtractor/resnet_v1_50/block3/unit_2/bottleneck_v1/conv1/weights/read/_139__cf__142/Output_0/Data__const" type="Const" version="opset1">
			<data element_type="f32" offset="11799052" shape="256,1024,1,1" size="1048576"/>
			<output>
				<port id="1" precision="FP32">
					<dim>256</dim>
					<dim>1024</dim>
					<dim>1</dim>
					<dim>1</dim>
				</port>
			</output>
		</layer>
		<layer id="152" name="FeatureExtractor/resnet_v1_50/resnet_v1_50/block3/unit_2/bottleneck_v1/conv1/Conv2D" type="Convolution" version="opset1">
			<data auto_pad="same_upper" dilations="1,1" output_padding="0,0" pads_begin="0,0" pads_end="0,0" strides="1,1"/>
			<input>
				<port id="0">
					<dim>1</dim>
					<dim>1024</dim>
					<dim>40</dim>
					<dim>40</dim>
				</port>
				<port id="1">
					<dim>256</dim>
					<dim>1024</dim>
					<dim>1</dim>
					<dim>1</dim>
				</port>
			</input>
			<output>
				<port id="2" precision="FP32">
					<dim>1</dim>
					<dim>256</dim>
					<dim>40</dim>
					<dim>40</dim>
				</port>
			</output>
		</layer>
		<layer id="153" name="FeatureExtractor/resnet_v1_50/resnet_v1_50/block3/unit_2/bottleneck_v1/conv1/Conv2D_bn_offset/Output_0/Data_/copy_const" type="Const" version="opset1">
			<data element_type="f32" offset="12847628" shape="1,256,1,1" size="1024"/>
			<output>
				<port id="1" precision="FP32">
					<dim>1</dim>
					<dim>256</dim>
					<dim>1</dim>
					<dim>1</dim>
				</port>
			</output>
		</layer>
		<layer id="154" name="FeatureExtractor/resnet_v1_50/resnet_v1_50/block3/unit_2/bottleneck_v1/conv1/BatchNorm/FusedBatchNorm/Add" type="Add" version="opset1">
			<input>
				<port id="0">
					<dim>1</dim>
					<dim>256</dim>
					<dim>40</dim>
					<dim>40</dim>
				</port>
				<port id="1">
					<dim>1</dim>
					<dim>256</dim>
					<dim>1</dim>
					<dim>1</dim>
				</port>
			</input>
			<output>
				<port id="2" precision="FP32">
					<dim>1</dim>
					<dim>256</dim>
					<dim>40</dim>
					<dim>40</dim>
				</port>
			</output>
		</layer>
		<layer id="155" name="FeatureExtractor/resnet_v1_50/resnet_v1_50/block3/unit_2/bottleneck_v1/conv1/Relu" type="ReLU" version="opset1">
			<input>
				<port id="0">
					<dim>1</dim>
					<dim>256</dim>
					<dim>40</dim>
					<dim>40</dim>
				</port>
			</input>
			<output>
				<port id="1" precision="FP32">
					<dim>1</dim>
					<dim>256</dim>
					<dim>40</dim>
					<dim>40</dim>
				</port>
			</output>
		</layer>
		<layer id="156" name="FeatureExtractor/resnet_v1_50/block3/unit_2/bottleneck_v1/conv2/weights/read/_144__cf__147/Output_0/Data__const" type="Const" version="opset1">
			<data element_type="f32" offset="12848652" shape="256,256,3,3" size="2359296"/>
			<output>
				<port id="1" precision="FP32">
					<dim>256</dim>
					<dim>256</dim>
					<dim>3</dim>
					<dim>3</dim>
				</port>
			</output>
		</layer>
		<layer id="157" name="FeatureExtractor/resnet_v1_50/resnet_v1_50/block3/unit_2/bottleneck_v1/conv2/Conv2D" type="Convolution" version="opset1">
			<data auto_pad="same_upper" dilations="1,1" output_padding="0,0" pads_begin="1,1" pads_end="1,1" strides="1,1"/>
			<input>
				<port id="0">
					<dim>1</dim>
					<dim>256</dim>
					<dim>40</dim>
					<dim>40</dim>
				</port>
				<port id="1">
					<dim>256</dim>
					<dim>256</dim>
					<dim>3</dim>
					<dim>3</dim>
				</port>
			</input>
			<output>
				<port id="2" precision="FP32">
					<dim>1</dim>
					<dim>256</dim>
					<dim>40</dim>
					<dim>40</dim>
				</port>
			</output>
		</layer>
		<layer id="158" name="FeatureExtractor/resnet_v1_50/resnet_v1_50/block3/unit_2/bottleneck_v1/conv2/Conv2D_bn_offset/Output_0/Data_/copy_const" type="Const" version="opset1">
			<data element_type="f32" offset="15207948" shape="1,256,1,1" size="1024"/>
			<output>
				<port id="1" precision="FP32">
					<dim>1</dim>
					<dim>256</dim>
					<dim>1</dim>
					<dim>1</dim>
				</port>
			</output>
		</layer>
		<layer id="159" name="FeatureExtractor/resnet_v1_50/resnet_v1_50/block3/unit_2/bottleneck_v1/conv2/BatchNorm/FusedBatchNorm/Add" type="Add" version="opset1">
			<input>
				<port id="0">
					<dim>1</dim>
					<dim>256</dim>
					<dim>40</dim>
					<dim>40</dim>
				</port>
				<port id="1">
					<dim>1</dim>
					<dim>256</dim>
					<dim>1</dim>
					<dim>1</dim>
				</port>
			</input>
			<output>
				<port id="2" precision="FP32">
					<dim>1</dim>
					<dim>256</dim>
					<dim>40</dim>
					<dim>40</dim>
				</port>
			</output>
		</layer>
		<layer id="160" name="FeatureExtractor/resnet_v1_50/resnet_v1_50/block3/unit_2/bottleneck_v1/conv2/Relu" type="ReLU" version="opset1">
			<input>
				<port id="0">
					<dim>1</dim>
					<dim>256</dim>
					<dim>40</dim>
					<dim>40</dim>
				</port>
			</input>
			<output>
				<port id="1" precision="FP32">
					<dim>1</dim>
					<dim>256</dim>
					<dim>40</dim>
					<dim>40</dim>
				</port>
			</output>
		</layer>
		<layer id="161" name="FeatureExtractor/resnet_v1_50/block3/unit_2/bottleneck_v1/conv3/weights/read/_149__cf__152/Output_0/Data__const" type="Const" version="opset1">
			<data element_type="f32" offset="15208972" shape="1024,256,1,1" size="1048576"/>
			<output>
				<port id="1" precision="FP32">
					<dim>1024</dim>
					<dim>256</dim>
					<dim>1</dim>
					<dim>1</dim>
				</port>
			</output>
		</layer>
		<layer id="162" name="FeatureExtractor/resnet_v1_50/resnet_v1_50/block3/unit_2/bottleneck_v1/conv3/Conv2D" type="Convolution" version="opset1">
			<data auto_pad="same_upper" dilations="1,1" output_padding="0,0" pads_begin="0,0" pads_end="0,0" strides="1,1"/>
			<input>
				<port id="0">
					<dim>1</dim>
					<dim>256</dim>
					<dim>40</dim>
					<dim>40</dim>
				</port>
				<port id="1">
					<dim>1024</dim>
					<dim>256</dim>
					<dim>1</dim>
					<dim>1</dim>
				</port>
			</input>
			<output>
				<port id="2" precision="FP32">
					<dim>1</dim>
					<dim>1024</dim>
					<dim>40</dim>
					<dim>40</dim>
				</port>
			</output>
		</layer>
		<layer id="163" name="FeatureExtractor/resnet_v1_50/resnet_v1_50/block3/unit_2/bottleneck_v1/conv3/Conv2D_bn_offset/Output_0/Data_/copy_const" type="Const" version="opset1">
			<data element_type="f32" offset="16257548" shape="1,1024,1,1" size="4096"/>
			<output>
				<port id="1" precision="FP32">
					<dim>1</dim>
					<dim>1024</dim>
					<dim>1</dim>
					<dim>1</dim>
				</port>
			</output>
		</layer>
		<layer id="164" name="FeatureExtractor/resnet_v1_50/resnet_v1_50/block3/unit_2/bottleneck_v1/conv3/BatchNorm/FusedBatchNorm/Add" type="Add" version="opset1">
			<input>
				<port id="0">
					<dim>1</dim>
					<dim>1024</dim>
					<dim>40</dim>
					<dim>40</dim>
				</port>
				<port id="1">
					<dim>1</dim>
					<dim>1024</dim>
					<dim>1</dim>
					<dim>1</dim>
				</port>
			</input>
			<output>
				<port id="2" precision="FP32">
					<dim>1</dim>
					<dim>1024</dim>
					<dim>40</dim>
					<dim>40</dim>
				</port>
			</output>
		</layer>
		<layer id="165" name="FeatureExtractor/resnet_v1_50/resnet_v1_50/block3/unit_2/bottleneck_v1/add" type="Add" version="opset1">
			<input>
				<port id="0">
					<dim>1</dim>
					<dim>1024</dim>
					<dim>40</dim>
					<dim>40</dim>
				</port>
				<port id="1">
					<dim>1</dim>
					<dim>1024</dim>
					<dim>40</dim>
					<dim>40</dim>
				</port>
			</input>
			<output>
				<port id="2" precision="FP32">
					<dim>1</dim>
					<dim>1024</dim>
					<dim>40</dim>
					<dim>40</dim>
				</port>
			</output>
		</layer>
		<layer id="166" name="FeatureExtractor/resnet_v1_50/resnet_v1_50/block3/unit_2/bottleneck_v1/Relu" type="ReLU" version="opset1">
			<input>
				<port id="0">
					<dim>1</dim>
					<dim>1024</dim>
					<dim>40</dim>
					<dim>40</dim>
				</port>
			</input>
			<output>
				<port id="1" precision="FP32">
					<dim>1</dim>
					<dim>1024</dim>
					<dim>40</dim>
					<dim>40</dim>
				</port>
			</output>
		</layer>
		<layer id="167" name="FeatureExtractor/resnet_v1_50/block3/unit_3/bottleneck_v1/conv1/weights/read/_154__cf__157/Output_0/Data__const" type="Const" version="opset1">
			<data element_type="f32" offset="16261644" shape="256,1024,1,1" size="1048576"/>
			<output>
				<port id="1" precision="FP32">
					<dim>256</dim>
					<dim>1024</dim>
					<dim>1</dim>
					<dim>1</dim>
				</port>
			</output>
		</layer>
		<layer id="168" name="FeatureExtractor/resnet_v1_50/resnet_v1_50/block3/unit_3/bottleneck_v1/conv1/Conv2D" type="Convolution" version="opset1">
			<data auto_pad="same_upper" dilations="1,1" output_padding="0,0" pads_begin="0,0" pads_end="0,0" strides="1,1"/>
			<input>
				<port id="0">
					<dim>1</dim>
					<dim>1024</dim>
					<dim>40</dim>
					<dim>40</dim>
				</port>
				<port id="1">
					<dim>256</dim>
					<dim>1024</dim>
					<dim>1</dim>
					<dim>1</dim>
				</port>
			</input>
			<output>
				<port id="2" precision="FP32">
					<dim>1</dim>
					<dim>256</dim>
					<dim>40</dim>
					<dim>40</dim>
				</port>
			</output>
		</layer>
		<layer id="169" name="FeatureExtractor/resnet_v1_50/resnet_v1_50/block3/unit_3/bottleneck_v1/conv1/Conv2D_bn_offset/Output_0/Data_/copy_const" type="Const" version="opset1">
			<data element_type="f32" offset="17310220" shape="1,256,1,1" size="1024"/>
			<output>
				<port id="1" precision="FP32">
					<dim>1</dim>
					<dim>256</dim>
					<dim>1</dim>
					<dim>1</dim>
				</port>
			</output>
		</layer>
		<layer id="170" name="FeatureExtractor/resnet_v1_50/resnet_v1_50/block3/unit_3/bottleneck_v1/conv1/BatchNorm/FusedBatchNorm/Add" type="Add" version="opset1">
			<input>
				<port id="0">
					<dim>1</dim>
					<dim>256</dim>
					<dim>40</dim>
					<dim>40</dim>
				</port>
				<port id="1">
					<dim>1</dim>
					<dim>256</dim>
					<dim>1</dim>
					<dim>1</dim>
				</port>
			</input>
			<output>
				<port id="2" precision="FP32">
					<dim>1</dim>
					<dim>256</dim>
					<dim>40</dim>
					<dim>40</dim>
				</port>
			</output>
		</layer>
		<layer id="171" name="FeatureExtractor/resnet_v1_50/resnet_v1_50/block3/unit_3/bottleneck_v1/conv1/Relu" type="ReLU" version="opset1">
			<input>
				<port id="0">
					<dim>1</dim>
					<dim>256</dim>
					<dim>40</dim>
					<dim>40</dim>
				</port>
			</input>
			<output>
				<port id="1" precision="FP32">
					<dim>1</dim>
					<dim>256</dim>
					<dim>40</dim>
					<dim>40</dim>
				</port>
			</output>
		</layer>
		<layer id="172" name="FeatureExtractor/resnet_v1_50/block3/unit_3/bottleneck_v1/conv2/weights/read/_159__cf__162/Output_0/Data__const" type="Const" version="opset1">
			<data element_type="f32" offset="17311244" shape="256,256,3,3" size="2359296"/>
			<output>
				<port id="1" precision="FP32">
					<dim>256</dim>
					<dim>256</dim>
					<dim>3</dim>
					<dim>3</dim>
				</port>
			</output>
		</layer>
		<layer id="173" name="FeatureExtractor/resnet_v1_50/resnet_v1_50/block3/unit_3/bottleneck_v1/conv2/Conv2D" type="Convolution" version="opset1">
			<data auto_pad="same_upper" dilations="1,1" output_padding="0,0" pads_begin="1,1" pads_end="1,1" strides="1,1"/>
			<input>
				<port id="0">
					<dim>1</dim>
					<dim>256</dim>
					<dim>40</dim>
					<dim>40</dim>
				</port>
				<port id="1">
					<dim>256</dim>
					<dim>256</dim>
					<dim>3</dim>
					<dim>3</dim>
				</port>
			</input>
			<output>
				<port id="2" precision="FP32">
					<dim>1</dim>
					<dim>256</dim>
					<dim>40</dim>
					<dim>40</dim>
				</port>
			</output>
		</layer>
		<layer id="174" name="FeatureExtractor/resnet_v1_50/resnet_v1_50/block3/unit_3/bottleneck_v1/conv2/Conv2D_bn_offset/Output_0/Data_/copy_const" type="Const" version="opset1">
			<data element_type="f32" offset="19670540" shape="1,256,1,1" size="1024"/>
			<output>
				<port id="1" precision="FP32">
					<dim>1</dim>
					<dim>256</dim>
					<dim>1</dim>
					<dim>1</dim>
				</port>
			</output>
		</layer>
		<layer id="175" name="FeatureExtractor/resnet_v1_50/resnet_v1_50/block3/unit_3/bottleneck_v1/conv2/BatchNorm/FusedBatchNorm/Add" type="Add" version="opset1">
			<input>
				<port id="0">
					<dim>1</dim>
					<dim>256</dim>
					<dim>40</dim>
					<dim>40</dim>
				</port>
				<port id="1">
					<dim>1</dim>
					<dim>256</dim>
					<dim>1</dim>
					<dim>1</dim>
				</port>
			</input>
			<output>
				<port id="2" precision="FP32">
					<dim>1</dim>
					<dim>256</dim>
					<dim>40</dim>
					<dim>40</dim>
				</port>
			</output>
		</layer>
		<layer id="176" name="FeatureExtractor/resnet_v1_50/resnet_v1_50/block3/unit_3/bottleneck_v1/conv2/Relu" type="ReLU" version="opset1">
			<input>
				<port id="0">
					<dim>1</dim>
					<dim>256</dim>
					<dim>40</dim>
					<dim>40</dim>
				</port>
			</input>
			<output>
				<port id="1" precision="FP32">
					<dim>1</dim>
					<dim>256</dim>
					<dim>40</dim>
					<dim>40</dim>
				</port>
			</output>
		</layer>
		<layer id="177" name="FeatureExtractor/resnet_v1_50/block3/unit_3/bottleneck_v1/conv3/weights/read/_164__cf__167/Output_0/Data__const" type="Const" version="opset1">
			<data element_type="f32" offset="19671564" shape="1024,256,1,1" size="1048576"/>
			<output>
				<port id="1" precision="FP32">
					<dim>1024</dim>
					<dim>256</dim>
					<dim>1</dim>
					<dim>1</dim>
				</port>
			</output>
		</layer>
		<layer id="178" name="FeatureExtractor/resnet_v1_50/resnet_v1_50/block3/unit_3/bottleneck_v1/conv3/Conv2D" type="Convolution" version="opset1">
			<data auto_pad="same_upper" dilations="1,1" output_padding="0,0" pads_begin="0,0" pads_end="0,0" strides="1,1"/>
			<input>
				<port id="0">
					<dim>1</dim>
					<dim>256</dim>
					<dim>40</dim>
					<dim>40</dim>
				</port>
				<port id="1">
					<dim>1024</dim>
					<dim>256</dim>
					<dim>1</dim>
					<dim>1</dim>
				</port>
			</input>
			<output>
				<port id="2" precision="FP32">
					<dim>1</dim>
					<dim>1024</dim>
					<dim>40</dim>
					<dim>40</dim>
				</port>
			</output>
		</layer>
		<layer id="179" name="FeatureExtractor/resnet_v1_50/resnet_v1_50/block3/unit_3/bottleneck_v1/conv3/Conv2D_bn_offset/Output_0/Data_/copy_const" type="Const" version="opset1">
			<data element_type="f32" offset="20720140" shape="1,1024,1,1" size="4096"/>
			<output>
				<port id="1" precision="FP32">
					<dim>1</dim>
					<dim>1024</dim>
					<dim>1</dim>
					<dim>1</dim>
				</port>
			</output>
		</layer>
		<layer id="180" name="FeatureExtractor/resnet_v1_50/resnet_v1_50/block3/unit_3/bottleneck_v1/conv3/BatchNorm/FusedBatchNorm/Add" type="Add" version="opset1">
			<input>
				<port id="0">
					<dim>1</dim>
					<dim>1024</dim>
					<dim>40</dim>
					<dim>40</dim>
				</port>
				<port id="1">
					<dim>1</dim>
					<dim>1024</dim>
					<dim>1</dim>
					<dim>1</dim>
				</port>
			</input>
			<output>
				<port id="2" precision="FP32">
					<dim>1</dim>
					<dim>1024</dim>
					<dim>40</dim>
					<dim>40</dim>
				</port>
			</output>
		</layer>
		<layer id="181" name="FeatureExtractor/resnet_v1_50/resnet_v1_50/block3/unit_3/bottleneck_v1/add" type="Add" version="opset1">
			<input>
				<port id="0">
					<dim>1</dim>
					<dim>1024</dim>
					<dim>40</dim>
					<dim>40</dim>
				</port>
				<port id="1">
					<dim>1</dim>
					<dim>1024</dim>
					<dim>40</dim>
					<dim>40</dim>
				</port>
			</input>
			<output>
				<port id="2" precision="FP32">
					<dim>1</dim>
					<dim>1024</dim>
					<dim>40</dim>
					<dim>40</dim>
				</port>
			</output>
		</layer>
		<layer id="182" name="FeatureExtractor/resnet_v1_50/resnet_v1_50/block3/unit_3/bottleneck_v1/Relu" type="ReLU" version="opset1">
			<input>
				<port id="0">
					<dim>1</dim>
					<dim>1024</dim>
					<dim>40</dim>
					<dim>40</dim>
				</port>
			</input>
			<output>
				<port id="1" precision="FP32">
					<dim>1</dim>
					<dim>1024</dim>
					<dim>40</dim>
					<dim>40</dim>
				</port>
			</output>
		</layer>
		<layer id="183" name="FeatureExtractor/resnet_v1_50/block3/unit_4/bottleneck_v1/conv1/weights/read/_169__cf__172/Output_0/Data__const" type="Const" version="opset1">
			<data element_type="f32" offset="20724236" shape="256,1024,1,1" size="1048576"/>
			<output>
				<port id="1" precision="FP32">
					<dim>256</dim>
					<dim>1024</dim>
					<dim>1</dim>
					<dim>1</dim>
				</port>
			</output>
		</layer>
		<layer id="184" name="FeatureExtractor/resnet_v1_50/resnet_v1_50/block3/unit_4/bottleneck_v1/conv1/Conv2D" type="Convolution" version="opset1">
			<data auto_pad="same_upper" dilations="1,1" output_padding="0,0" pads_begin="0,0" pads_end="0,0" strides="1,1"/>
			<input>
				<port id="0">
					<dim>1</dim>
					<dim>1024</dim>
					<dim>40</dim>
					<dim>40</dim>
				</port>
				<port id="1">
					<dim>256</dim>
					<dim>1024</dim>
					<dim>1</dim>
					<dim>1</dim>
				</port>
			</input>
			<output>
				<port id="2" precision="FP32">
					<dim>1</dim>
					<dim>256</dim>
					<dim>40</dim>
					<dim>40</dim>
				</port>
			</output>
		</layer>
		<layer id="185" name="FeatureExtractor/resnet_v1_50/resnet_v1_50/block3/unit_4/bottleneck_v1/conv1/Conv2D_bn_offset/Output_0/Data_/copy_const" type="Const" version="opset1">
			<data element_type="f32" offset="21772812" shape="1,256,1,1" size="1024"/>
			<output>
				<port id="1" precision="FP32">
					<dim>1</dim>
					<dim>256</dim>
					<dim>1</dim>
					<dim>1</dim>
				</port>
			</output>
		</layer>
		<layer id="186" name="FeatureExtractor/resnet_v1_50/resnet_v1_50/block3/unit_4/bottleneck_v1/conv1/BatchNorm/FusedBatchNorm/Add" type="Add" version="opset1">
			<input>
				<port id="0">
					<dim>1</dim>
					<dim>256</dim>
					<dim>40</dim>
					<dim>40</dim>
				</port>
				<port id="1">
					<dim>1</dim>
					<dim>256</dim>
					<dim>1</dim>
					<dim>1</dim>
				</port>
			</input>
			<output>
				<port id="2" precision="FP32">
					<dim>1</dim>
					<dim>256</dim>
					<dim>40</dim>
					<dim>40</dim>
				</port>
			</output>
		</layer>
		<layer id="187" name="FeatureExtractor/resnet_v1_50/resnet_v1_50/block3/unit_4/bottleneck_v1/conv1/Relu" type="ReLU" version="opset1">
			<input>
				<port id="0">
					<dim>1</dim>
					<dim>256</dim>
					<dim>40</dim>
					<dim>40</dim>
				</port>
			</input>
			<output>
				<port id="1" precision="FP32">
					<dim>1</dim>
					<dim>256</dim>
					<dim>40</dim>
					<dim>40</dim>
				</port>
			</output>
		</layer>
		<layer id="188" name="FeatureExtractor/resnet_v1_50/block3/unit_4/bottleneck_v1/conv2/weights/read/_174__cf__177/Output_0/Data__const" type="Const" version="opset1">
			<data element_type="f32" offset="21773836" shape="256,256,3,3" size="2359296"/>
			<output>
				<port id="1" precision="FP32">
					<dim>256</dim>
					<dim>256</dim>
					<dim>3</dim>
					<dim>3</dim>
				</port>
			</output>
		</layer>
		<layer id="189" name="FeatureExtractor/resnet_v1_50/resnet_v1_50/block3/unit_4/bottleneck_v1/conv2/Conv2D" type="Convolution" version="opset1">
			<data auto_pad="same_upper" dilations="1,1" output_padding="0,0" pads_begin="1,1" pads_end="1,1" strides="1,1"/>
			<input>
				<port id="0">
					<dim>1</dim>
					<dim>256</dim>
					<dim>40</dim>
					<dim>40</dim>
				</port>
				<port id="1">
					<dim>256</dim>
					<dim>256</dim>
					<dim>3</dim>
					<dim>3</dim>
				</port>
			</input>
			<output>
				<port id="2" precision="FP32">
					<dim>1</dim>
					<dim>256</dim>
					<dim>40</dim>
					<dim>40</dim>
				</port>
			</output>
		</layer>
		<layer id="190" name="FeatureExtractor/resnet_v1_50/resnet_v1_50/block3/unit_4/bottleneck_v1/conv2/Conv2D_bn_offset/Output_0/Data_/copy_const" type="Const" version="opset1">
			<data element_type="f32" offset="24133132" shape="1,256,1,1" size="1024"/>
			<output>
				<port id="1" precision="FP32">
					<dim>1</dim>
					<dim>256</dim>
					<dim>1</dim>
					<dim>1</dim>
				</port>
			</output>
		</layer>
		<layer id="191" name="FeatureExtractor/resnet_v1_50/resnet_v1_50/block3/unit_4/bottleneck_v1/conv2/BatchNorm/FusedBatchNorm/Add" type="Add" version="opset1">
			<input>
				<port id="0">
					<dim>1</dim>
					<dim>256</dim>
					<dim>40</dim>
					<dim>40</dim>
				</port>
				<port id="1">
					<dim>1</dim>
					<dim>256</dim>
					<dim>1</dim>
					<dim>1</dim>
				</port>
			</input>
			<output>
				<port id="2" precision="FP32">
					<dim>1</dim>
					<dim>256</dim>
					<dim>40</dim>
					<dim>40</dim>
				</port>
			</output>
		</layer>
		<layer id="192" name="FeatureExtractor/resnet_v1_50/resnet_v1_50/block3/unit_4/bottleneck_v1/conv2/Relu" type="ReLU" version="opset1">
			<input>
				<port id="0">
					<dim>1</dim>
					<dim>256</dim>
					<dim>40</dim>
					<dim>40</dim>
				</port>
			</input>
			<output>
				<port id="1" precision="FP32">
					<dim>1</dim>
					<dim>256</dim>
					<dim>40</dim>
					<dim>40</dim>
				</port>
			</output>
		</layer>
		<layer id="193" name="FeatureExtractor/resnet_v1_50/block3/unit_4/bottleneck_v1/conv3/weights/read/_179__cf__182/Output_0/Data__const" type="Const" version="opset1">
			<data element_type="f32" offset="24134156" shape="1024,256,1,1" size="1048576"/>
			<output>
				<port id="1" precision="FP32">
					<dim>1024</dim>
					<dim>256</dim>
					<dim>1</dim>
					<dim>1</dim>
				</port>
			</output>
		</layer>
		<layer id="194" name="FeatureExtractor/resnet_v1_50/resnet_v1_50/block3/unit_4/bottleneck_v1/conv3/Conv2D" type="Convolution" version="opset1">
			<data auto_pad="same_upper" dilations="1,1" output_padding="0,0" pads_begin="0,0" pads_end="0,0" strides="1,1"/>
			<input>
				<port id="0">
					<dim>1</dim>
					<dim>256</dim>
					<dim>40</dim>
					<dim>40</dim>
				</port>
				<port id="1">
					<dim>1024</dim>
					<dim>256</dim>
					<dim>1</dim>
					<dim>1</dim>
				</port>
			</input>
			<output>
				<port id="2" precision="FP32">
					<dim>1</dim>
					<dim>1024</dim>
					<dim>40</dim>
					<dim>40</dim>
				</port>
			</output>
		</layer>
		<layer id="195" name="FeatureExtractor/resnet_v1_50/resnet_v1_50/block3/unit_4/bottleneck_v1/conv3/Conv2D_bn_offset/Output_0/Data_/copy_const" type="Const" version="opset1">
			<data element_type="f32" offset="25182732" shape="1,1024,1,1" size="4096"/>
			<output>
				<port id="1" precision="FP32">
					<dim>1</dim>
					<dim>1024</dim>
					<dim>1</dim>
					<dim>1</dim>
				</port>
			</output>
		</layer>
		<layer id="196" name="FeatureExtractor/resnet_v1_50/resnet_v1_50/block3/unit_4/bottleneck_v1/conv3/BatchNorm/FusedBatchNorm/Add" type="Add" version="opset1">
			<input>
				<port id="0">
					<dim>1</dim>
					<dim>1024</dim>
					<dim>40</dim>
					<dim>40</dim>
				</port>
				<port id="1">
					<dim>1</dim>
					<dim>1024</dim>
					<dim>1</dim>
					<dim>1</dim>
				</port>
			</input>
			<output>
				<port id="2" precision="FP32">
					<dim>1</dim>
					<dim>1024</dim>
					<dim>40</dim>
					<dim>40</dim>
				</port>
			</output>
		</layer>
		<layer id="197" name="FeatureExtractor/resnet_v1_50/resnet_v1_50/block3/unit_4/bottleneck_v1/add" type="Add" version="opset1">
			<input>
				<port id="0">
					<dim>1</dim>
					<dim>1024</dim>
					<dim>40</dim>
					<dim>40</dim>
				</port>
				<port id="1">
					<dim>1</dim>
					<dim>1024</dim>
					<dim>40</dim>
					<dim>40</dim>
				</port>
			</input>
			<output>
				<port id="2" precision="FP32">
					<dim>1</dim>
					<dim>1024</dim>
					<dim>40</dim>
					<dim>40</dim>
				</port>
			</output>
		</layer>
		<layer id="198" name="FeatureExtractor/resnet_v1_50/resnet_v1_50/block3/unit_4/bottleneck_v1/Relu" type="ReLU" version="opset1">
			<input>
				<port id="0">
					<dim>1</dim>
					<dim>1024</dim>
					<dim>40</dim>
					<dim>40</dim>
				</port>
			</input>
			<output>
				<port id="1" precision="FP32">
					<dim>1</dim>
					<dim>1024</dim>
					<dim>40</dim>
					<dim>40</dim>
				</port>
			</output>
		</layer>
		<layer id="199" name="FeatureExtractor/resnet_v1_50/block3/unit_5/bottleneck_v1/conv1/weights/read/_184__cf__187/Output_0/Data__const" type="Const" version="opset1">
			<data element_type="f32" offset="25186828" shape="256,1024,1,1" size="1048576"/>
			<output>
				<port id="1" precision="FP32">
					<dim>256</dim>
					<dim>1024</dim>
					<dim>1</dim>
					<dim>1</dim>
				</port>
			</output>
		</layer>
		<layer id="200" name="FeatureExtractor/resnet_v1_50/resnet_v1_50/block3/unit_5/bottleneck_v1/conv1/Conv2D" type="Convolution" version="opset1">
			<data auto_pad="same_upper" dilations="1,1" output_padding="0,0" pads_begin="0,0" pads_end="0,0" strides="1,1"/>
			<input>
				<port id="0">
					<dim>1</dim>
					<dim>1024</dim>
					<dim>40</dim>
					<dim>40</dim>
				</port>
				<port id="1">
					<dim>256</dim>
					<dim>1024</dim>
					<dim>1</dim>
					<dim>1</dim>
				</port>
			</input>
			<output>
				<port id="2" precision="FP32">
					<dim>1</dim>
					<dim>256</dim>
					<dim>40</dim>
					<dim>40</dim>
				</port>
			</output>
		</layer>
		<layer id="201" name="FeatureExtractor/resnet_v1_50/resnet_v1_50/block3/unit_5/bottleneck_v1/conv1/Conv2D_bn_offset/Output_0/Data_/copy_const" type="Const" version="opset1">
			<data element_type="f32" offset="26235404" shape="1,256,1,1" size="1024"/>
			<output>
				<port id="1" precision="FP32">
					<dim>1</dim>
					<dim>256</dim>
					<dim>1</dim>
					<dim>1</dim>
				</port>
			</output>
		</layer>
		<layer id="202" name="FeatureExtractor/resnet_v1_50/resnet_v1_50/block3/unit_5/bottleneck_v1/conv1/BatchNorm/FusedBatchNorm/Add" type="Add" version="opset1">
			<input>
				<port id="0">
					<dim>1</dim>
					<dim>256</dim>
					<dim>40</dim>
					<dim>40</dim>
				</port>
				<port id="1">
					<dim>1</dim>
					<dim>256</dim>
					<dim>1</dim>
					<dim>1</dim>
				</port>
			</input>
			<output>
				<port id="2" precision="FP32">
					<dim>1</dim>
					<dim>256</dim>
					<dim>40</dim>
					<dim>40</dim>
				</port>
			</output>
		</layer>
		<layer id="203" name="FeatureExtractor/resnet_v1_50/resnet_v1_50/block3/unit_5/bottleneck_v1/conv1/Relu" type="ReLU" version="opset1">
			<input>
				<port id="0">
					<dim>1</dim>
					<dim>256</dim>
					<dim>40</dim>
					<dim>40</dim>
				</port>
			</input>
			<output>
				<port id="1" precision="FP32">
					<dim>1</dim>
					<dim>256</dim>
					<dim>40</dim>
					<dim>40</dim>
				</port>
			</output>
		</layer>
		<layer id="204" name="FeatureExtractor/resnet_v1_50/block3/unit_5/bottleneck_v1/conv2/weights/read/_189__cf__192/Output_0/Data__const" type="Const" version="opset1">
			<data element_type="f32" offset="26236428" shape="256,256,3,3" size="2359296"/>
			<output>
				<port id="1" precision="FP32">
					<dim>256</dim>
					<dim>256</dim>
					<dim>3</dim>
					<dim>3</dim>
				</port>
			</output>
		</layer>
		<layer id="205" name="FeatureExtractor/resnet_v1_50/resnet_v1_50/block3/unit_5/bottleneck_v1/conv2/Conv2D" type="Convolution" version="opset1">
			<data auto_pad="same_upper" dilations="1,1" output_padding="0,0" pads_begin="1,1" pads_end="1,1" strides="1,1"/>
			<input>
				<port id="0">
					<dim>1</dim>
					<dim>256</dim>
					<dim>40</dim>
					<dim>40</dim>
				</port>
				<port id="1">
					<dim>256</dim>
					<dim>256</dim>
					<dim>3</dim>
					<dim>3</dim>
				</port>
			</input>
			<output>
				<port id="2" precision="FP32">
					<dim>1</dim>
					<dim>256</dim>
					<dim>40</dim>
					<dim>40</dim>
				</port>
			</output>
		</layer>
		<layer id="206" name="FeatureExtractor/resnet_v1_50/resnet_v1_50/block3/unit_5/bottleneck_v1/conv2/Conv2D_bn_offset/Output_0/Data_/copy_const" type="Const" version="opset1">
			<data element_type="f32" offset="28595724" shape="1,256,1,1" size="1024"/>
			<output>
				<port id="1" precision="FP32">
					<dim>1</dim>
					<dim>256</dim>
					<dim>1</dim>
					<dim>1</dim>
				</port>
			</output>
		</layer>
		<layer id="207" name="FeatureExtractor/resnet_v1_50/resnet_v1_50/block3/unit_5/bottleneck_v1/conv2/BatchNorm/FusedBatchNorm/Add" type="Add" version="opset1">
			<input>
				<port id="0">
					<dim>1</dim>
					<dim>256</dim>
					<dim>40</dim>
					<dim>40</dim>
				</port>
				<port id="1">
					<dim>1</dim>
					<dim>256</dim>
					<dim>1</dim>
					<dim>1</dim>
				</port>
			</input>
			<output>
				<port id="2" precision="FP32">
					<dim>1</dim>
					<dim>256</dim>
					<dim>40</dim>
					<dim>40</dim>
				</port>
			</output>
		</layer>
		<layer id="208" name="FeatureExtractor/resnet_v1_50/resnet_v1_50/block3/unit_5/bottleneck_v1/conv2/Relu" type="ReLU" version="opset1">
			<input>
				<port id="0">
					<dim>1</dim>
					<dim>256</dim>
					<dim>40</dim>
					<dim>40</dim>
				</port>
			</input>
			<output>
				<port id="1" precision="FP32">
					<dim>1</dim>
					<dim>256</dim>
					<dim>40</dim>
					<dim>40</dim>
				</port>
			</output>
		</layer>
		<layer id="209" name="FeatureExtractor/resnet_v1_50/block3/unit_5/bottleneck_v1/conv3/weights/read/_194__cf__197/Output_0/Data__const" type="Const" version="opset1">
			<data element_type="f32" offset="28596748" shape="1024,256,1,1" size="1048576"/>
			<output>
				<port id="1" precision="FP32">
					<dim>1024</dim>
					<dim>256</dim>
					<dim>1</dim>
					<dim>1</dim>
				</port>
			</output>
		</layer>
		<layer id="210" name="FeatureExtractor/resnet_v1_50/resnet_v1_50/block3/unit_5/bottleneck_v1/conv3/Conv2D" type="Convolution" version="opset1">
			<data auto_pad="same_upper" dilations="1,1" output_padding="0,0" pads_begin="0,0" pads_end="0,0" strides="1,1"/>
			<input>
				<port id="0">
					<dim>1</dim>
					<dim>256</dim>
					<dim>40</dim>
					<dim>40</dim>
				</port>
				<port id="1">
					<dim>1024</dim>
					<dim>256</dim>
					<dim>1</dim>
					<dim>1</dim>
				</port>
			</input>
			<output>
				<port id="2" precision="FP32">
					<dim>1</dim>
					<dim>1024</dim>
					<dim>40</dim>
					<dim>40</dim>
				</port>
			</output>
		</layer>
		<layer id="211" name="FeatureExtractor/resnet_v1_50/resnet_v1_50/block3/unit_5/bottleneck_v1/conv3/Conv2D_bn_offset/Output_0/Data_/copy_const" type="Const" version="opset1">
			<data element_type="f32" offset="29645324" shape="1,1024,1,1" size="4096"/>
			<output>
				<port id="1" precision="FP32">
					<dim>1</dim>
					<dim>1024</dim>
					<dim>1</dim>
					<dim>1</dim>
				</port>
			</output>
		</layer>
		<layer id="212" name="FeatureExtractor/resnet_v1_50/resnet_v1_50/block3/unit_5/bottleneck_v1/conv3/BatchNorm/FusedBatchNorm/Add" type="Add" version="opset1">
			<input>
				<port id="0">
					<dim>1</dim>
					<dim>1024</dim>
					<dim>40</dim>
					<dim>40</dim>
				</port>
				<port id="1">
					<dim>1</dim>
					<dim>1024</dim>
					<dim>1</dim>
					<dim>1</dim>
				</port>
			</input>
			<output>
				<port id="2" precision="FP32">
					<dim>1</dim>
					<dim>1024</dim>
					<dim>40</dim>
					<dim>40</dim>
				</port>
			</output>
		</layer>
		<layer id="213" name="FeatureExtractor/resnet_v1_50/resnet_v1_50/block3/unit_5/bottleneck_v1/add" type="Add" version="opset1">
			<input>
				<port id="0">
					<dim>1</dim>
					<dim>1024</dim>
					<dim>40</dim>
					<dim>40</dim>
				</port>
				<port id="1">
					<dim>1</dim>
					<dim>1024</dim>
					<dim>40</dim>
					<dim>40</dim>
				</port>
			</input>
			<output>
				<port id="2" precision="FP32">
					<dim>1</dim>
					<dim>1024</dim>
					<dim>40</dim>
					<dim>40</dim>
				</port>
			</output>
		</layer>
		<layer id="214" name="FeatureExtractor/resnet_v1_50/resnet_v1_50/block3/unit_5/bottleneck_v1/Relu" type="ReLU" version="opset1">
			<input>
				<port id="0">
					<dim>1</dim>
					<dim>1024</dim>
					<dim>40</dim>
					<dim>40</dim>
				</port>
			</input>
			<output>
				<port id="1" precision="FP32">
					<dim>1</dim>
					<dim>1024</dim>
					<dim>40</dim>
					<dim>40</dim>
				</port>
			</output>
		</layer>
		<layer id="215" name="FeatureExtractor/resnet_v1_50/block3/unit_6/bottleneck_v1/conv1/weights/read/_199__cf__202/Output_0/Data__const" type="Const" version="opset1">
			<data element_type="f32" offset="29649420" shape="256,1024,1,1" size="1048576"/>
			<output>
				<port id="1" precision="FP32">
					<dim>256</dim>
					<dim>1024</dim>
					<dim>1</dim>
					<dim>1</dim>
				</port>
			</output>
		</layer>
		<layer id="216" name="FeatureExtractor/resnet_v1_50/resnet_v1_50/block3/unit_6/bottleneck_v1/conv1/Conv2D" type="Convolution" version="opset1">
			<data auto_pad="same_upper" dilations="1,1" output_padding="0,0" pads_begin="0,0" pads_end="0,0" strides="1,1"/>
			<input>
				<port id="0">
					<dim>1</dim>
					<dim>1024</dim>
					<dim>40</dim>
					<dim>40</dim>
				</port>
				<port id="1">
					<dim>256</dim>
					<dim>1024</dim>
					<dim>1</dim>
					<dim>1</dim>
				</port>
			</input>
			<output>
				<port id="2" precision="FP32">
					<dim>1</dim>
					<dim>256</dim>
					<dim>40</dim>
					<dim>40</dim>
				</port>
			</output>
		</layer>
		<layer id="217" name="FeatureExtractor/resnet_v1_50/resnet_v1_50/block3/unit_6/bottleneck_v1/conv1/Conv2D_bn_offset/Output_0/Data_/copy_const" type="Const" version="opset1">
			<data element_type="f32" offset="30697996" shape="1,256,1,1" size="1024"/>
			<output>
				<port id="1" precision="FP32">
					<dim>1</dim>
					<dim>256</dim>
					<dim>1</dim>
					<dim>1</dim>
				</port>
			</output>
		</layer>
		<layer id="218" name="FeatureExtractor/resnet_v1_50/resnet_v1_50/block3/unit_6/bottleneck_v1/conv1/BatchNorm/FusedBatchNorm/Add" type="Add" version="opset1">
			<input>
				<port id="0">
					<dim>1</dim>
					<dim>256</dim>
					<dim>40</dim>
					<dim>40</dim>
				</port>
				<port id="1">
					<dim>1</dim>
					<dim>256</dim>
					<dim>1</dim>
					<dim>1</dim>
				</port>
			</input>
			<output>
				<port id="2" precision="FP32">
					<dim>1</dim>
					<dim>256</dim>
					<dim>40</dim>
					<dim>40</dim>
				</port>
			</output>
		</layer>
		<layer id="219" name="FeatureExtractor/resnet_v1_50/resnet_v1_50/block3/unit_6/bottleneck_v1/conv1/Relu" type="ReLU" version="opset1">
			<input>
				<port id="0">
					<dim>1</dim>
					<dim>256</dim>
					<dim>40</dim>
					<dim>40</dim>
				</port>
			</input>
			<output>
				<port id="1" precision="FP32">
					<dim>1</dim>
					<dim>256</dim>
					<dim>40</dim>
					<dim>40</dim>
				</port>
			</output>
		</layer>
		<layer id="220" name="FeatureExtractor/resnet_v1_50/block3/unit_6/bottleneck_v1/conv2/weights/read/_204__cf__207/Output_0/Data__const" type="Const" version="opset1">
			<data element_type="f32" offset="30699020" shape="256,256,3,3" size="2359296"/>
			<output>
				<port id="1" precision="FP32">
					<dim>256</dim>
					<dim>256</dim>
					<dim>3</dim>
					<dim>3</dim>
				</port>
			</output>
		</layer>
		<layer id="221" name="FeatureExtractor/resnet_v1_50/resnet_v1_50/block3/unit_6/bottleneck_v1/conv2/Conv2D" type="Convolution" version="opset1">
			<data auto_pad="same_upper" dilations="1,1" output_padding="0,0" pads_begin="1,1" pads_end="1,1" strides="1,1"/>
			<input>
				<port id="0">
					<dim>1</dim>
					<dim>256</dim>
					<dim>40</dim>
					<dim>40</dim>
				</port>
				<port id="1">
					<dim>256</dim>
					<dim>256</dim>
					<dim>3</dim>
					<dim>3</dim>
				</port>
			</input>
			<output>
				<port id="2" precision="FP32">
					<dim>1</dim>
					<dim>256</dim>
					<dim>40</dim>
					<dim>40</dim>
				</port>
			</output>
		</layer>
		<layer id="222" name="FeatureExtractor/resnet_v1_50/resnet_v1_50/block3/unit_6/bottleneck_v1/conv2/Conv2D_bn_offset/Output_0/Data_/copy_const" type="Const" version="opset1">
			<data element_type="f32" offset="33058316" shape="1,256,1,1" size="1024"/>
			<output>
				<port id="1" precision="FP32">
					<dim>1</dim>
					<dim>256</dim>
					<dim>1</dim>
					<dim>1</dim>
				</port>
			</output>
		</layer>
		<layer id="223" name="FeatureExtractor/resnet_v1_50/resnet_v1_50/block3/unit_6/bottleneck_v1/conv2/BatchNorm/FusedBatchNorm/Add" type="Add" version="opset1">
			<input>
				<port id="0">
					<dim>1</dim>
					<dim>256</dim>
					<dim>40</dim>
					<dim>40</dim>
				</port>
				<port id="1">
					<dim>1</dim>
					<dim>256</dim>
					<dim>1</dim>
					<dim>1</dim>
				</port>
			</input>
			<output>
				<port id="2" precision="FP32">
					<dim>1</dim>
					<dim>256</dim>
					<dim>40</dim>
					<dim>40</dim>
				</port>
			</output>
		</layer>
		<layer id="224" name="FeatureExtractor/resnet_v1_50/resnet_v1_50/block3/unit_6/bottleneck_v1/conv2/Relu" type="ReLU" version="opset1">
			<input>
				<port id="0">
					<dim>1</dim>
					<dim>256</dim>
					<dim>40</dim>
					<dim>40</dim>
				</port>
			</input>
			<output>
				<port id="1" precision="FP32">
					<dim>1</dim>
					<dim>256</dim>
					<dim>40</dim>
					<dim>40</dim>
				</port>
			</output>
		</layer>
		<layer id="225" name="FeatureExtractor/resnet_v1_50/block3/unit_6/bottleneck_v1/conv3/weights/read/_209__cf__212/Output_0/Data__const" type="Const" version="opset1">
			<data element_type="f32" offset="33059340" shape="1024,256,1,1" size="1048576"/>
			<output>
				<port id="1" precision="FP32">
					<dim>1024</dim>
					<dim>256</dim>
					<dim>1</dim>
					<dim>1</dim>
				</port>
			</output>
		</layer>
		<layer id="226" name="FeatureExtractor/resnet_v1_50/resnet_v1_50/block3/unit_6/bottleneck_v1/conv3/Conv2D" type="Convolution" version="opset1">
			<data auto_pad="same_upper" dilations="1,1" output_padding="0,0" pads_begin="0,0" pads_end="0,0" strides="1,1"/>
			<input>
				<port id="0">
					<dim>1</dim>
					<dim>256</dim>
					<dim>40</dim>
					<dim>40</dim>
				</port>
				<port id="1">
					<dim>1024</dim>
					<dim>256</dim>
					<dim>1</dim>
					<dim>1</dim>
				</port>
			</input>
			<output>
				<port id="2" precision="FP32">
					<dim>1</dim>
					<dim>1024</dim>
					<dim>40</dim>
					<dim>40</dim>
				</port>
			</output>
		</layer>
		<layer id="227" name="FeatureExtractor/resnet_v1_50/resnet_v1_50/block3/unit_6/bottleneck_v1/conv3/Conv2D_bn_offset/Output_0/Data_/copy_const" type="Const" version="opset1">
			<data element_type="f32" offset="34107916" shape="1,1024,1,1" size="4096"/>
			<output>
				<port id="1" precision="FP32">
					<dim>1</dim>
					<dim>1024</dim>
					<dim>1</dim>
					<dim>1</dim>
				</port>
			</output>
		</layer>
		<layer id="228" name="FeatureExtractor/resnet_v1_50/resnet_v1_50/block3/unit_6/bottleneck_v1/conv3/BatchNorm/FusedBatchNorm/Add" type="Add" version="opset1">
			<input>
				<port id="0">
					<dim>1</dim>
					<dim>1024</dim>
					<dim>40</dim>
					<dim>40</dim>
				</port>
				<port id="1">
					<dim>1</dim>
					<dim>1024</dim>
					<dim>1</dim>
					<dim>1</dim>
				</port>
			</input>
			<output>
				<port id="2" precision="FP32">
					<dim>1</dim>
					<dim>1024</dim>
					<dim>40</dim>
					<dim>40</dim>
				</port>
			</output>
		</layer>
		<layer id="229" name="FeatureExtractor/resnet_v1_50/resnet_v1_50/block3/unit_6/bottleneck_v1/add" type="Add" version="opset1">
			<input>
				<port id="0">
					<dim>1</dim>
					<dim>1024</dim>
					<dim>40</dim>
					<dim>40</dim>
				</port>
				<port id="1">
					<dim>1</dim>
					<dim>1024</dim>
					<dim>40</dim>
					<dim>40</dim>
				</port>
			</input>
			<output>
				<port id="2" precision="FP32">
					<dim>1</dim>
					<dim>1024</dim>
					<dim>40</dim>
					<dim>40</dim>
				</port>
			</output>
		</layer>
		<layer id="230" name="FeatureExtractor/resnet_v1_50/resnet_v1_50/block3/unit_6/bottleneck_v1/Relu" type="ReLU" version="opset1">
			<input>
				<port id="0">
					<dim>1</dim>
					<dim>1024</dim>
					<dim>40</dim>
					<dim>40</dim>
				</port>
			</input>
			<output>
				<port id="1" precision="FP32">
					<dim>1</dim>
					<dim>1024</dim>
					<dim>40</dim>
					<dim>40</dim>
				</port>
			</output>
		</layer>
		<layer id="231" name="FeatureExtractor/resnet_v1_50/resnet_v1_50/block3/MaxPool2D/MaxPool" type="MaxPool" version="opset1">
			<data auto_pad="same_upper" kernel="1,1" pads_begin="0,0" pads_end="0,0" strides="2,2"/>
			<input>
				<port id="0">
					<dim>1</dim>
					<dim>1024</dim>
					<dim>40</dim>
					<dim>40</dim>
				</port>
			</input>
			<output>
				<port id="1" precision="FP32">
					<dim>1</dim>
					<dim>1024</dim>
					<dim>20</dim>
					<dim>20</dim>
				</port>
			</output>
		</layer>
		<layer id="232" name="FeatureExtractor/resnet_v1_50/block4/unit_1/bottleneck_v1/shortcut/weights/read/_229__cf__232/Output_0/Data__const" type="Const" version="opset1">
			<data element_type="f32" offset="34112012" shape="2048,1024,1,1" size="8388608"/>
			<output>
				<port id="1" precision="FP32">
					<dim>2048</dim>
					<dim>1024</dim>
					<dim>1</dim>
					<dim>1</dim>
				</port>
			</output>
		</layer>
		<layer id="233" name="FeatureExtractor/resnet_v1_50/resnet_v1_50/block4/unit_1/bottleneck_v1/shortcut/Conv2D" type="Convolution" version="opset1">
			<data auto_pad="same_upper" dilations="1,1" output_padding="0,0" pads_begin="0,0" pads_end="0,0" strides="1,1"/>
			<input>
				<port id="0">
					<dim>1</dim>
					<dim>1024</dim>
					<dim>20</dim>
					<dim>20</dim>
				</port>
				<port id="1">
					<dim>2048</dim>
					<dim>1024</dim>
					<dim>1</dim>
					<dim>1</dim>
				</port>
			</input>
			<output>
				<port id="2" precision="FP32">
					<dim>1</dim>
					<dim>2048</dim>
					<dim>20</dim>
					<dim>20</dim>
				</port>
			</output>
		</layer>
		<layer id="234" name="FeatureExtractor/resnet_v1_50/resnet_v1_50/block4/unit_1/bottleneck_v1/shortcut/Conv2D_bn_offset/Output_0/Data_/copy_const" type="Const" version="opset1">
			<data element_type="f32" offset="42500620" shape="1,2048,1,1" size="8192"/>
			<output>
				<port id="1" precision="FP32">
					<dim>1</dim>
					<dim>2048</dim>
					<dim>1</dim>
					<dim>1</dim>
				</port>
			</output>
		</layer>
		<layer id="235" name="FeatureExtractor/resnet_v1_50/resnet_v1_50/block4/unit_1/bottleneck_v1/shortcut/BatchNorm/FusedBatchNorm/Add" type="Add" version="opset1">
			<input>
				<port id="0">
					<dim>1</dim>
					<dim>2048</dim>
					<dim>20</dim>
					<dim>20</dim>
				</port>
				<port id="1">
					<dim>1</dim>
					<dim>2048</dim>
					<dim>1</dim>
					<dim>1</dim>
				</port>
			</input>
			<output>
				<port id="2" precision="FP32">
					<dim>1</dim>
					<dim>2048</dim>
					<dim>20</dim>
					<dim>20</dim>
				</port>
			</output>
		</layer>
		<layer id="236" name="FeatureExtractor/resnet_v1_50/block4/unit_1/bottleneck_v1/conv1/weights/read/_214__cf__217/Output_0/Data__const" type="Const" version="opset1">
			<data element_type="f32" offset="42508812" shape="512,1024,1,1" size="2097152"/>
			<output>
				<port id="1" precision="FP32">
					<dim>512</dim>
					<dim>1024</dim>
					<dim>1</dim>
					<dim>1</dim>
				</port>
			</output>
		</layer>
		<layer id="237" name="FeatureExtractor/resnet_v1_50/resnet_v1_50/block4/unit_1/bottleneck_v1/conv1/Conv2D" type="Convolution" version="opset1">
			<data auto_pad="same_upper" dilations="1,1" output_padding="0,0" pads_begin="0,0" pads_end="0,0" strides="1,1"/>
			<input>
				<port id="0">
					<dim>1</dim>
					<dim>1024</dim>
					<dim>20</dim>
					<dim>20</dim>
				</port>
				<port id="1">
					<dim>512</dim>
					<dim>1024</dim>
					<dim>1</dim>
					<dim>1</dim>
				</port>
			</input>
			<output>
				<port id="2" precision="FP32">
					<dim>1</dim>
					<dim>512</dim>
					<dim>20</dim>
					<dim>20</dim>
				</port>
			</output>
		</layer>
		<layer id="238" name="FeatureExtractor/resnet_v1_50/resnet_v1_50/block4/unit_1/bottleneck_v1/conv1/Conv2D_bn_offset/Output_0/Data_/copy_const" type="Const" version="opset1">
			<data element_type="f32" offset="44605964" shape="1,512,1,1" size="2048"/>
			<output>
				<port id="1" precision="FP32">
					<dim>1</dim>
					<dim>512</dim>
					<dim>1</dim>
					<dim>1</dim>
				</port>
			</output>
		</layer>
		<layer id="239" name="FeatureExtractor/resnet_v1_50/resnet_v1_50/block4/unit_1/bottleneck_v1/conv1/BatchNorm/FusedBatchNorm/Add" type="Add" version="opset1">
			<input>
				<port id="0">
					<dim>1</dim>
					<dim>512</dim>
					<dim>20</dim>
					<dim>20</dim>
				</port>
				<port id="1">
					<dim>1</dim>
					<dim>512</dim>
					<dim>1</dim>
					<dim>1</dim>
				</port>
			</input>
			<output>
				<port id="2" precision="FP32">
					<dim>1</dim>
					<dim>512</dim>
					<dim>20</dim>
					<dim>20</dim>
				</port>
			</output>
		</layer>
		<layer id="240" name="FeatureExtractor/resnet_v1_50/resnet_v1_50/block4/unit_1/bottleneck_v1/conv1/Relu" type="ReLU" version="opset1">
			<input>
				<port id="0">
					<dim>1</dim>
					<dim>512</dim>
					<dim>20</dim>
					<dim>20</dim>
				</port>
			</input>
			<output>
				<port id="1" precision="FP32">
					<dim>1</dim>
					<dim>512</dim>
					<dim>20</dim>
					<dim>20</dim>
				</port>
			</output>
		</layer>
		<layer id="241" name="FeatureExtractor/resnet_v1_50/block4/unit_1/bottleneck_v1/conv2/weights/read/_219__cf__222/Output_0/Data__const" type="Const" version="opset1">
			<data element_type="f32" offset="44608012" shape="512,512,3,3" size="9437184"/>
			<output>
				<port id="1" precision="FP32">
					<dim>512</dim>
					<dim>512</dim>
					<dim>3</dim>
					<dim>3</dim>
				</port>
			</output>
		</layer>
		<layer id="242" name="FeatureExtractor/resnet_v1_50/resnet_v1_50/block4/unit_1/bottleneck_v1/conv2/Conv2D" type="Convolution" version="opset1">
			<data auto_pad="same_upper" dilations="1,1" output_padding="0,0" pads_begin="1,1" pads_end="1,1" strides="1,1"/>
			<input>
				<port id="0">
					<dim>1</dim>
					<dim>512</dim>
					<dim>20</dim>
					<dim>20</dim>
				</port>
				<port id="1">
					<dim>512</dim>
					<dim>512</dim>
					<dim>3</dim>
					<dim>3</dim>
				</port>
			</input>
			<output>
				<port id="2" precision="FP32">
					<dim>1</dim>
					<dim>512</dim>
					<dim>20</dim>
					<dim>20</dim>
				</port>
			</output>
		</layer>
		<layer id="243" name="FeatureExtractor/resnet_v1_50/resnet_v1_50/block4/unit_1/bottleneck_v1/conv2/Conv2D_bn_offset/Output_0/Data_/copy_const" type="Const" version="opset1">
			<data element_type="f32" offset="54045196" shape="1,512,1,1" size="2048"/>
			<output>
				<port id="1" precision="FP32">
					<dim>1</dim>
					<dim>512</dim>
					<dim>1</dim>
					<dim>1</dim>
				</port>
			</output>
		</layer>
		<layer id="244" name="FeatureExtractor/resnet_v1_50/resnet_v1_50/block4/unit_1/bottleneck_v1/conv2/BatchNorm/FusedBatchNorm/Add" type="Add" version="opset1">
			<input>
				<port id="0">
					<dim>1</dim>
					<dim>512</dim>
					<dim>20</dim>
					<dim>20</dim>
				</port>
				<port id="1">
					<dim>1</dim>
					<dim>512</dim>
					<dim>1</dim>
					<dim>1</dim>
				</port>
			</input>
			<output>
				<port id="2" precision="FP32">
					<dim>1</dim>
					<dim>512</dim>
					<dim>20</dim>
					<dim>20</dim>
				</port>
			</output>
		</layer>
		<layer id="245" name="FeatureExtractor/resnet_v1_50/resnet_v1_50/block4/unit_1/bottleneck_v1/conv2/Relu" type="ReLU" version="opset1">
			<input>
				<port id="0">
					<dim>1</dim>
					<dim>512</dim>
					<dim>20</dim>
					<dim>20</dim>
				</port>
			</input>
			<output>
				<port id="1" precision="FP32">
					<dim>1</dim>
					<dim>512</dim>
					<dim>20</dim>
					<dim>20</dim>
				</port>
			</output>
		</layer>
		<layer id="246" name="FeatureExtractor/resnet_v1_50/block4/unit_1/bottleneck_v1/conv3/weights/read/_224__cf__227/Output_0/Data__const" type="Const" version="opset1">
			<data element_type="f32" offset="54047244" shape="2048,512,1,1" size="4194304"/>
			<output>
				<port id="1" precision="FP32">
					<dim>2048</dim>
					<dim>512</dim>
					<dim>1</dim>
					<dim>1</dim>
				</port>
			</output>
		</layer>
		<layer id="247" name="FeatureExtractor/resnet_v1_50/resnet_v1_50/block4/unit_1/bottleneck_v1/conv3/Conv2D" type="Convolution" version="opset1">
			<data auto_pad="same_upper" dilations="1,1" output_padding="0,0" pads_begin="0,0" pads_end="0,0" strides="1,1"/>
			<input>
				<port id="0">
					<dim>1</dim>
					<dim>512</dim>
					<dim>20</dim>
					<dim>20</dim>
				</port>
				<port id="1">
					<dim>2048</dim>
					<dim>512</dim>
					<dim>1</dim>
					<dim>1</dim>
				</port>
			</input>
			<output>
				<port id="2" precision="FP32">
					<dim>1</dim>
					<dim>2048</dim>
					<dim>20</dim>
					<dim>20</dim>
				</port>
			</output>
		</layer>
		<layer id="248" name="FeatureExtractor/resnet_v1_50/resnet_v1_50/block4/unit_1/bottleneck_v1/conv3/Conv2D_bn_offset/Output_0/Data_/copy_const" type="Const" version="opset1">
			<data element_type="f32" offset="58241548" shape="1,2048,1,1" size="8192"/>
			<output>
				<port id="1" precision="FP32">
					<dim>1</dim>
					<dim>2048</dim>
					<dim>1</dim>
					<dim>1</dim>
				</port>
			</output>
		</layer>
		<layer id="249" name="FeatureExtractor/resnet_v1_50/resnet_v1_50/block4/unit_1/bottleneck_v1/conv3/BatchNorm/FusedBatchNorm/Add" type="Add" version="opset1">
			<input>
				<port id="0">
					<dim>1</dim>
					<dim>2048</dim>
					<dim>20</dim>
					<dim>20</dim>
				</port>
				<port id="1">
					<dim>1</dim>
					<dim>2048</dim>
					<dim>1</dim>
					<dim>1</dim>
				</port>
			</input>
			<output>
				<port id="2" precision="FP32">
					<dim>1</dim>
					<dim>2048</dim>
					<dim>20</dim>
					<dim>20</dim>
				</port>
			</output>
		</layer>
		<layer id="250" name="FeatureExtractor/resnet_v1_50/resnet_v1_50/block4/unit_1/bottleneck_v1/add" type="Add" version="opset1">
			<input>
				<port id="0">
					<dim>1</dim>
					<dim>2048</dim>
					<dim>20</dim>
					<dim>20</dim>
				</port>
				<port id="1">
					<dim>1</dim>
					<dim>2048</dim>
					<dim>20</dim>
					<dim>20</dim>
				</port>
			</input>
			<output>
				<port id="2" precision="FP32">
					<dim>1</dim>
					<dim>2048</dim>
					<dim>20</dim>
					<dim>20</dim>
				</port>
			</output>
		</layer>
		<layer id="251" name="FeatureExtractor/resnet_v1_50/resnet_v1_50/block4/unit_1/bottleneck_v1/Relu" type="ReLU" version="opset1">
			<input>
				<port id="0">
					<dim>1</dim>
					<dim>2048</dim>
					<dim>20</dim>
					<dim>20</dim>
				</port>
			</input>
			<output>
				<port id="1" precision="FP32">
					<dim>1</dim>
					<dim>2048</dim>
					<dim>20</dim>
					<dim>20</dim>
				</port>
			</output>
		</layer>
		<layer id="252" name="FeatureExtractor/resnet_v1_50/block4/unit_2/bottleneck_v1/conv1/weights/read/_234__cf__237/Output_0/Data__const" type="Const" version="opset1">
			<data element_type="f32" offset="58249740" shape="512,2048,1,1" size="4194304"/>
			<output>
				<port id="1" precision="FP32">
					<dim>512</dim>
					<dim>2048</dim>
					<dim>1</dim>
					<dim>1</dim>
				</port>
			</output>
		</layer>
		<layer id="253" name="FeatureExtractor/resnet_v1_50/resnet_v1_50/block4/unit_2/bottleneck_v1/conv1/Conv2D" type="Convolution" version="opset1">
			<data auto_pad="same_upper" dilations="1,1" output_padding="0,0" pads_begin="0,0" pads_end="0,0" strides="1,1"/>
			<input>
				<port id="0">
					<dim>1</dim>
					<dim>2048</dim>
					<dim>20</dim>
					<dim>20</dim>
				</port>
				<port id="1">
					<dim>512</dim>
					<dim>2048</dim>
					<dim>1</dim>
					<dim>1</dim>
				</port>
			</input>
			<output>
				<port id="2" precision="FP32">
					<dim>1</dim>
					<dim>512</dim>
					<dim>20</dim>
					<dim>20</dim>
				</port>
			</output>
		</layer>
		<layer id="254" name="FeatureExtractor/resnet_v1_50/resnet_v1_50/block4/unit_2/bottleneck_v1/conv1/Conv2D_bn_offset/Output_0/Data_/copy_const" type="Const" version="opset1">
			<data element_type="f32" offset="62444044" shape="1,512,1,1" size="2048"/>
			<output>
				<port id="1" precision="FP32">
					<dim>1</dim>
					<dim>512</dim>
					<dim>1</dim>
					<dim>1</dim>
				</port>
			</output>
		</layer>
		<layer id="255" name="FeatureExtractor/resnet_v1_50/resnet_v1_50/block4/unit_2/bottleneck_v1/conv1/BatchNorm/FusedBatchNorm/Add" type="Add" version="opset1">
			<input>
				<port id="0">
					<dim>1</dim>
					<dim>512</dim>
					<dim>20</dim>
					<dim>20</dim>
				</port>
				<port id="1">
					<dim>1</dim>
					<dim>512</dim>
					<dim>1</dim>
					<dim>1</dim>
				</port>
			</input>
			<output>
				<port id="2" precision="FP32">
					<dim>1</dim>
					<dim>512</dim>
					<dim>20</dim>
					<dim>20</dim>
				</port>
			</output>
		</layer>
		<layer id="256" name="FeatureExtractor/resnet_v1_50/resnet_v1_50/block4/unit_2/bottleneck_v1/conv1/Relu" type="ReLU" version="opset1">
			<input>
				<port id="0">
					<dim>1</dim>
					<dim>512</dim>
					<dim>20</dim>
					<dim>20</dim>
				</port>
			</input>
			<output>
				<port id="1" precision="FP32">
					<dim>1</dim>
					<dim>512</dim>
					<dim>20</dim>
					<dim>20</dim>
				</port>
			</output>
		</layer>
		<layer id="257" name="FeatureExtractor/resnet_v1_50/block4/unit_2/bottleneck_v1/conv2/weights/read/_239__cf__242/Output_0/Data__const" type="Const" version="opset1">
			<data element_type="f32" offset="62446092" shape="512,512,3,3" size="9437184"/>
			<output>
				<port id="1" precision="FP32">
					<dim>512</dim>
					<dim>512</dim>
					<dim>3</dim>
					<dim>3</dim>
				</port>
			</output>
		</layer>
		<layer id="258" name="FeatureExtractor/resnet_v1_50/resnet_v1_50/block4/unit_2/bottleneck_v1/conv2/Conv2D" type="Convolution" version="opset1">
			<data auto_pad="same_upper" dilations="1,1" output_padding="0,0" pads_begin="1,1" pads_end="1,1" strides="1,1"/>
			<input>
				<port id="0">
					<dim>1</dim>
					<dim>512</dim>
					<dim>20</dim>
					<dim>20</dim>
				</port>
				<port id="1">
					<dim>512</dim>
					<dim>512</dim>
					<dim>3</dim>
					<dim>3</dim>
				</port>
			</input>
			<output>
				<port id="2" precision="FP32">
					<dim>1</dim>
					<dim>512</dim>
					<dim>20</dim>
					<dim>20</dim>
				</port>
			</output>
		</layer>
		<layer id="259" name="FeatureExtractor/resnet_v1_50/resnet_v1_50/block4/unit_2/bottleneck_v1/conv2/Conv2D_bn_offset/Output_0/Data_/copy_const" type="Const" version="opset1">
			<data element_type="f32" offset="71883276" shape="1,512,1,1" size="2048"/>
			<output>
				<port id="1" precision="FP32">
					<dim>1</dim>
					<dim>512</dim>
					<dim>1</dim>
					<dim>1</dim>
				</port>
			</output>
		</layer>
		<layer id="260" name="FeatureExtractor/resnet_v1_50/resnet_v1_50/block4/unit_2/bottleneck_v1/conv2/BatchNorm/FusedBatchNorm/Add" type="Add" version="opset1">
			<input>
				<port id="0">
					<dim>1</dim>
					<dim>512</dim>
					<dim>20</dim>
					<dim>20</dim>
				</port>
				<port id="1">
					<dim>1</dim>
					<dim>512</dim>
					<dim>1</dim>
					<dim>1</dim>
				</port>
			</input>
			<output>
				<port id="2" precision="FP32">
					<dim>1</dim>
					<dim>512</dim>
					<dim>20</dim>
					<dim>20</dim>
				</port>
			</output>
		</layer>
		<layer id="261" name="FeatureExtractor/resnet_v1_50/resnet_v1_50/block4/unit_2/bottleneck_v1/conv2/Relu" type="ReLU" version="opset1">
			<input>
				<port id="0">
					<dim>1</dim>
					<dim>512</dim>
					<dim>20</dim>
					<dim>20</dim>
				</port>
			</input>
			<output>
				<port id="1" precision="FP32">
					<dim>1</dim>
					<dim>512</dim>
					<dim>20</dim>
					<dim>20</dim>
				</port>
			</output>
		</layer>
		<layer id="262" name="FeatureExtractor/resnet_v1_50/block4/unit_2/bottleneck_v1/conv3/weights/read/_244__cf__247/Output_0/Data__const" type="Const" version="opset1">
			<data element_type="f32" offset="71885324" shape="2048,512,1,1" size="4194304"/>
			<output>
				<port id="1" precision="FP32">
					<dim>2048</dim>
					<dim>512</dim>
					<dim>1</dim>
					<dim>1</dim>
				</port>
			</output>
		</layer>
		<layer id="263" name="FeatureExtractor/resnet_v1_50/resnet_v1_50/block4/unit_2/bottleneck_v1/conv3/Conv2D" type="Convolution" version="opset1">
			<data auto_pad="same_upper" dilations="1,1" output_padding="0,0" pads_begin="0,0" pads_end="0,0" strides="1,1"/>
			<input>
				<port id="0">
					<dim>1</dim>
					<dim>512</dim>
					<dim>20</dim>
					<dim>20</dim>
				</port>
				<port id="1">
					<dim>2048</dim>
					<dim>512</dim>
					<dim>1</dim>
					<dim>1</dim>
				</port>
			</input>
			<output>
				<port id="2" precision="FP32">
					<dim>1</dim>
					<dim>2048</dim>
					<dim>20</dim>
					<dim>20</dim>
				</port>
			</output>
		</layer>
		<layer id="264" name="FeatureExtractor/resnet_v1_50/resnet_v1_50/block4/unit_2/bottleneck_v1/conv3/Conv2D_bn_offset/Output_0/Data_/copy_const" type="Const" version="opset1">
			<data element_type="f32" offset="76079628" shape="1,2048,1,1" size="8192"/>
			<output>
				<port id="1" precision="FP32">
					<dim>1</dim>
					<dim>2048</dim>
					<dim>1</dim>
					<dim>1</dim>
				</port>
			</output>
		</layer>
		<layer id="265" name="FeatureExtractor/resnet_v1_50/resnet_v1_50/block4/unit_2/bottleneck_v1/conv3/BatchNorm/FusedBatchNorm/Add" type="Add" version="opset1">
			<input>
				<port id="0">
					<dim>1</dim>
					<dim>2048</dim>
					<dim>20</dim>
					<dim>20</dim>
				</port>
				<port id="1">
					<dim>1</dim>
					<dim>2048</dim>
					<dim>1</dim>
					<dim>1</dim>
				</port>
			</input>
			<output>
				<port id="2" precision="FP32">
					<dim>1</dim>
					<dim>2048</dim>
					<dim>20</dim>
					<dim>20</dim>
				</port>
			</output>
		</layer>
		<layer id="266" name="FeatureExtractor/resnet_v1_50/resnet_v1_50/block4/unit_2/bottleneck_v1/add" type="Add" version="opset1">
			<input>
				<port id="0">
					<dim>1</dim>
					<dim>2048</dim>
					<dim>20</dim>
					<dim>20</dim>
				</port>
				<port id="1">
					<dim>1</dim>
					<dim>2048</dim>
					<dim>20</dim>
					<dim>20</dim>
				</port>
			</input>
			<output>
				<port id="2" precision="FP32">
					<dim>1</dim>
					<dim>2048</dim>
					<dim>20</dim>
					<dim>20</dim>
				</port>
			</output>
		</layer>
		<layer id="267" name="FeatureExtractor/resnet_v1_50/resnet_v1_50/block4/unit_2/bottleneck_v1/Relu" type="ReLU" version="opset1">
			<input>
				<port id="0">
					<dim>1</dim>
					<dim>2048</dim>
					<dim>20</dim>
					<dim>20</dim>
				</port>
			</input>
			<output>
				<port id="1" precision="FP32">
					<dim>1</dim>
					<dim>2048</dim>
					<dim>20</dim>
					<dim>20</dim>
				</port>
			</output>
		</layer>
		<layer id="268" name="FeatureExtractor/resnet_v1_50/block4/unit_3/bottleneck_v1/conv1/weights/read/_249__cf__252/Output_0/Data__const" type="Const" version="opset1">
			<data element_type="f32" offset="76087820" shape="512,2048,1,1" size="4194304"/>
			<output>
				<port id="1" precision="FP32">
					<dim>512</dim>
					<dim>2048</dim>
					<dim>1</dim>
					<dim>1</dim>
				</port>
			</output>
		</layer>
		<layer id="269" name="FeatureExtractor/resnet_v1_50/resnet_v1_50/block4/unit_3/bottleneck_v1/conv1/Conv2D" type="Convolution" version="opset1">
			<data auto_pad="same_upper" dilations="1,1" output_padding="0,0" pads_begin="0,0" pads_end="0,0" strides="1,1"/>
			<input>
				<port id="0">
					<dim>1</dim>
					<dim>2048</dim>
					<dim>20</dim>
					<dim>20</dim>
				</port>
				<port id="1">
					<dim>512</dim>
					<dim>2048</dim>
					<dim>1</dim>
					<dim>1</dim>
				</port>
			</input>
			<output>
				<port id="2" precision="FP32">
					<dim>1</dim>
					<dim>512</dim>
					<dim>20</dim>
					<dim>20</dim>
				</port>
			</output>
		</layer>
		<layer id="270" name="FeatureExtractor/resnet_v1_50/resnet_v1_50/block4/unit_3/bottleneck_v1/conv1/Conv2D_bn_offset/Output_0/Data_/copy_const" type="Const" version="opset1">
			<data element_type="f32" offset="80282124" shape="1,512,1,1" size="2048"/>
			<output>
				<port id="1" precision="FP32">
					<dim>1</dim>
					<dim>512</dim>
					<dim>1</dim>
					<dim>1</dim>
				</port>
			</output>
		</layer>
		<layer id="271" name="FeatureExtractor/resnet_v1_50/resnet_v1_50/block4/unit_3/bottleneck_v1/conv1/BatchNorm/FusedBatchNorm/Add" type="Add" version="opset1">
			<input>
				<port id="0">
					<dim>1</dim>
					<dim>512</dim>
					<dim>20</dim>
					<dim>20</dim>
				</port>
				<port id="1">
					<dim>1</dim>
					<dim>512</dim>
					<dim>1</dim>
					<dim>1</dim>
				</port>
			</input>
			<output>
				<port id="2" precision="FP32">
					<dim>1</dim>
					<dim>512</dim>
					<dim>20</dim>
					<dim>20</dim>
				</port>
			</output>
		</layer>
		<layer id="272" name="FeatureExtractor/resnet_v1_50/resnet_v1_50/block4/unit_3/bottleneck_v1/conv1/Relu" type="ReLU" version="opset1">
			<input>
				<port id="0">
					<dim>1</dim>
					<dim>512</dim>
					<dim>20</dim>
					<dim>20</dim>
				</port>
			</input>
			<output>
				<port id="1" precision="FP32">
					<dim>1</dim>
					<dim>512</dim>
					<dim>20</dim>
					<dim>20</dim>
				</port>
			</output>
		</layer>
		<layer id="273" name="FeatureExtractor/resnet_v1_50/block4/unit_3/bottleneck_v1/conv2/weights/read/_254__cf__257/Output_0/Data__const" type="Const" version="opset1">
			<data element_type="f32" offset="80284172" shape="512,512,3,3" size="9437184"/>
			<output>
				<port id="1" precision="FP32">
					<dim>512</dim>
					<dim>512</dim>
					<dim>3</dim>
					<dim>3</dim>
				</port>
			</output>
		</layer>
		<layer id="274" name="FeatureExtractor/resnet_v1_50/resnet_v1_50/block4/unit_3/bottleneck_v1/conv2/Conv2D" type="Convolution" version="opset1">
			<data auto_pad="same_upper" dilations="1,1" output_padding="0,0" pads_begin="1,1" pads_end="1,1" strides="1,1"/>
			<input>
				<port id="0">
					<dim>1</dim>
					<dim>512</dim>
					<dim>20</dim>
					<dim>20</dim>
				</port>
				<port id="1">
					<dim>512</dim>
					<dim>512</dim>
					<dim>3</dim>
					<dim>3</dim>
				</port>
			</input>
			<output>
				<port id="2" precision="FP32">
					<dim>1</dim>
					<dim>512</dim>
					<dim>20</dim>
					<dim>20</dim>
				</port>
			</output>
		</layer>
		<layer id="275" name="FeatureExtractor/resnet_v1_50/resnet_v1_50/block4/unit_3/bottleneck_v1/conv2/Conv2D_bn_offset/Output_0/Data_/copy_const" type="Const" version="opset1">
			<data element_type="f32" offset="89721356" shape="1,512,1,1" size="2048"/>
			<output>
				<port id="1" precision="FP32">
					<dim>1</dim>
					<dim>512</dim>
					<dim>1</dim>
					<dim>1</dim>
				</port>
			</output>
		</layer>
		<layer id="276" name="FeatureExtractor/resnet_v1_50/resnet_v1_50/block4/unit_3/bottleneck_v1/conv2/BatchNorm/FusedBatchNorm/Add" type="Add" version="opset1">
			<input>
				<port id="0">
					<dim>1</dim>
					<dim>512</dim>
					<dim>20</dim>
					<dim>20</dim>
				</port>
				<port id="1">
					<dim>1</dim>
					<dim>512</dim>
					<dim>1</dim>
					<dim>1</dim>
				</port>
			</input>
			<output>
				<port id="2" precision="FP32">
					<dim>1</dim>
					<dim>512</dim>
					<dim>20</dim>
					<dim>20</dim>
				</port>
			</output>
		</layer>
		<layer id="277" name="FeatureExtractor/resnet_v1_50/resnet_v1_50/block4/unit_3/bottleneck_v1/conv2/Relu" type="ReLU" version="opset1">
			<input>
				<port id="0">
					<dim>1</dim>
					<dim>512</dim>
					<dim>20</dim>
					<dim>20</dim>
				</port>
			</input>
			<output>
				<port id="1" precision="FP32">
					<dim>1</dim>
					<dim>512</dim>
					<dim>20</dim>
					<dim>20</dim>
				</port>
			</output>
		</layer>
		<layer id="278" name="FeatureExtractor/resnet_v1_50/block4/unit_3/bottleneck_v1/conv3/weights/read/_259__cf__262/Output_0/Data__const" type="Const" version="opset1">
			<data element_type="f32" offset="89723404" shape="2048,512,1,1" size="4194304"/>
			<output>
				<port id="1" precision="FP32">
					<dim>2048</dim>
					<dim>512</dim>
					<dim>1</dim>
					<dim>1</dim>
				</port>
			</output>
		</layer>
		<layer id="279" name="FeatureExtractor/resnet_v1_50/resnet_v1_50/block4/unit_3/bottleneck_v1/conv3/Conv2D" type="Convolution" version="opset1">
			<data auto_pad="same_upper" dilations="1,1" output_padding="0,0" pads_begin="0,0" pads_end="0,0" strides="1,1"/>
			<input>
				<port id="0">
					<dim>1</dim>
					<dim>512</dim>
					<dim>20</dim>
					<dim>20</dim>
				</port>
				<port id="1">
					<dim>2048</dim>
					<dim>512</dim>
					<dim>1</dim>
					<dim>1</dim>
				</port>
			</input>
			<output>
				<port id="2" precision="FP32">
					<dim>1</dim>
					<dim>2048</dim>
					<dim>20</dim>
					<dim>20</dim>
				</port>
			</output>
		</layer>
		<layer id="280" name="FeatureExtractor/resnet_v1_50/resnet_v1_50/block4/unit_3/bottleneck_v1/conv3/Conv2D_bn_offset/Output_0/Data_/copy_const" type="Const" version="opset1">
			<data element_type="f32" offset="93917708" shape="1,2048,1,1" size="8192"/>
			<output>
				<port id="1" precision="FP32">
					<dim>1</dim>
					<dim>2048</dim>
					<dim>1</dim>
					<dim>1</dim>
				</port>
			</output>
		</layer>
		<layer id="281" name="FeatureExtractor/resnet_v1_50/resnet_v1_50/block4/unit_3/bottleneck_v1/conv3/BatchNorm/FusedBatchNorm/Add" type="Add" version="opset1">
			<input>
				<port id="0">
					<dim>1</dim>
					<dim>2048</dim>
					<dim>20</dim>
					<dim>20</dim>
				</port>
				<port id="1">
					<dim>1</dim>
					<dim>2048</dim>
					<dim>1</dim>
					<dim>1</dim>
				</port>
			</input>
			<output>
				<port id="2" precision="FP32">
					<dim>1</dim>
					<dim>2048</dim>
					<dim>20</dim>
					<dim>20</dim>
				</port>
			</output>
		</layer>
		<layer id="282" name="FeatureExtractor/resnet_v1_50/resnet_v1_50/block4/unit_3/bottleneck_v1/add" type="Add" version="opset1">
			<input>
				<port id="0">
					<dim>1</dim>
					<dim>2048</dim>
					<dim>20</dim>
					<dim>20</dim>
				</port>
				<port id="1">
					<dim>1</dim>
					<dim>2048</dim>
					<dim>20</dim>
					<dim>20</dim>
				</port>
			</input>
			<output>
				<port id="2" precision="FP32">
					<dim>1</dim>
					<dim>2048</dim>
					<dim>20</dim>
					<dim>20</dim>
				</port>
			</output>
		</layer>
		<layer id="283" name="FeatureExtractor/resnet_v1_50/resnet_v1_50/block4/unit_3/bottleneck_v1/Relu" type="ReLU" version="opset1">
			<input>
				<port id="0">
					<dim>1</dim>
					<dim>2048</dim>
					<dim>20</dim>
					<dim>20</dim>
				</port>
			</input>
			<output>
				<port id="1" precision="FP32">
					<dim>1</dim>
					<dim>2048</dim>
					<dim>20</dim>
					<dim>20</dim>
				</port>
			</output>
		</layer>
		<layer id="284" name="FeatureExtractor/resnet_v1_50/fpn/projection_3/weights/read/_280__cf__283/Output_0/Data__const" type="Const" version="opset1">
			<data element_type="f32" offset="93925900" shape="256,2048,1,1" size="2097152"/>
			<output>
				<port id="1" precision="FP32">
					<dim>256</dim>
					<dim>2048</dim>
					<dim>1</dim>
					<dim>1</dim>
				</port>
			</output>
		</layer>
		<layer id="285" name="FeatureExtractor/resnet_v1_50/fpn/top_down/projection_3/Conv2D" type="Convolution" version="opset1">
			<data auto_pad="same_upper" dilations="1,1" output_padding="0,0" pads_begin="0,0" pads_end="0,0" strides="1,1"/>
			<input>
				<port id="0">
					<dim>1</dim>
					<dim>2048</dim>
					<dim>20</dim>
					<dim>20</dim>
				</port>
				<port id="1">
					<dim>256</dim>
					<dim>2048</dim>
					<dim>1</dim>
					<dim>1</dim>
				</port>
			</input>
			<output>
				<port id="2" precision="FP32">
					<dim>1</dim>
					<dim>256</dim>
					<dim>20</dim>
					<dim>20</dim>
				</port>
			</output>
		</layer>
		<layer id="286" name="FeatureExtractor/resnet_v1_50/fpn/projection_3/biases/read/_279__cf__282/Output_0/Data_/copy_const" type="Const" version="opset1">
			<data element_type="f32" offset="96023052" shape="1,256,1,1" size="1024"/>
			<output>
				<port id="1" precision="FP32">
					<dim>1</dim>
					<dim>256</dim>
					<dim>1</dim>
					<dim>1</dim>
				</port>
			</output>
		</layer>
		<layer id="287" name="FeatureExtractor/resnet_v1_50/fpn/top_down/projection_3/BiasAdd/Add" type="Add" version="opset1">
			<input>
				<port id="0">
					<dim>1</dim>
					<dim>256</dim>
					<dim>20</dim>
					<dim>20</dim>
				</port>
				<port id="1">
					<dim>1</dim>
					<dim>256</dim>
					<dim>1</dim>
					<dim>1</dim>
				</port>
			</input>
			<output>
				<port id="2" precision="FP32">
					<dim>1</dim>
					<dim>256</dim>
					<dim>20</dim>
					<dim>20</dim>
				</port>
			</output>
		</layer>
		<layer id="288" name="Resample_7108/Cast_130922_const" type="Const" version="opset1">
			<data element_type="i64" offset="96024076" shape="2" size="16"/>
			<output>
				<port id="1" precision="I64">
					<dim>2</dim>
				</port>
			</output>
		</layer>
		<layer id="289" name="Resample_7108" type="Interpolate" version="opset1">
			<data align_corners="0" antialias="0" axes="2,3" mode="nearest" pads_begin="0" pads_end="0"/>
			<input>
				<port id="0">
					<dim>1</dim>
					<dim>256</dim>
					<dim>20</dim>
					<dim>20</dim>
				</port>
				<port id="1">
					<dim>2</dim>
				</port>
			</input>
			<output>
				<port id="2" precision="FP32">
					<dim>1</dim>
					<dim>256</dim>
					<dim>40</dim>
					<dim>40</dim>
				</port>
			</output>
		</layer>
		<layer id="290" name="FeatureExtractor/resnet_v1_50/fpn/projection_2/weights/read/_278__cf__281/Output_0/Data__const" type="Const" version="opset1">
			<data element_type="f32" offset="96024092" shape="256,1024,1,1" size="1048576"/>
			<output>
				<port id="1" precision="FP32">
					<dim>256</dim>
					<dim>1024</dim>
					<dim>1</dim>
					<dim>1</dim>
				</port>
			</output>
		</layer>
		<layer id="291" name="FeatureExtractor/resnet_v1_50/fpn/top_down/projection_2/Conv2D" type="Convolution" version="opset1">
			<data auto_pad="same_upper" dilations="1,1" output_padding="0,0" pads_begin="0,0" pads_end="0,0" strides="1,1"/>
			<input>
				<port id="0">
					<dim>1</dim>
					<dim>1024</dim>
					<dim>40</dim>
					<dim>40</dim>
				</port>
				<port id="1">
					<dim>256</dim>
					<dim>1024</dim>
					<dim>1</dim>
					<dim>1</dim>
				</port>
			</input>
			<output>
				<port id="2" precision="FP32">
					<dim>1</dim>
					<dim>256</dim>
					<dim>40</dim>
					<dim>40</dim>
				</port>
			</output>
		</layer>
		<layer id="292" name="FeatureExtractor/resnet_v1_50/fpn/projection_2/biases/read/_277__cf__280/Output_0/Data_/copy_const" type="Const" version="opset1">
			<data element_type="f32" offset="97072668" shape="1,256,1,1" size="1024"/>
			<output>
				<port id="1" precision="FP32">
					<dim>1</dim>
					<dim>256</dim>
					<dim>1</dim>
					<dim>1</dim>
				</port>
			</output>
		</layer>
		<layer id="293" name="FeatureExtractor/resnet_v1_50/fpn/top_down/projection_2/BiasAdd/Add" type="Add" version="opset1">
			<input>
				<port id="0">
					<dim>1</dim>
					<dim>256</dim>
					<dim>40</dim>
					<dim>40</dim>
				</port>
				<port id="1">
					<dim>1</dim>
					<dim>256</dim>
					<dim>1</dim>
					<dim>1</dim>
				</port>
			</input>
			<output>
				<port id="2" precision="FP32">
					<dim>1</dim>
					<dim>256</dim>
					<dim>40</dim>
					<dim>40</dim>
				</port>
			</output>
		</layer>
		<layer id="294" name="FeatureExtractor/resnet_v1_50/fpn/top_down/add" type="Add" version="opset1">
			<input>
				<port id="0">
					<dim>1</dim>
					<dim>256</dim>
					<dim>40</dim>
					<dim>40</dim>
				</port>
				<port id="1">
					<dim>1</dim>
					<dim>256</dim>
					<dim>40</dim>
					<dim>40</dim>
				</port>
			</input>
			<output>
				<port id="2" precision="FP32">
					<dim>1</dim>
					<dim>256</dim>
					<dim>40</dim>
					<dim>40</dim>
				</port>
			</output>
		</layer>
		<layer id="295" name="Resample_/Cast_130858_const" type="Const" version="opset1">
			<data element_type="i64" offset="97073692" shape="2" size="16"/>
			<output>
				<port id="1" precision="I64">
					<dim>2</dim>
				</port>
			</output>
		</layer>
		<layer id="296" name="Resample_" type="Interpolate" version="opset1">
			<data align_corners="0" antialias="0" axes="2,3" mode="nearest" pads_begin="0" pads_end="0"/>
			<input>
				<port id="0">
					<dim>1</dim>
					<dim>256</dim>
					<dim>40</dim>
					<dim>40</dim>
				</port>
				<port id="1">
					<dim>2</dim>
				</port>
			</input>
			<output>
				<port id="2" precision="FP32">
					<dim>1</dim>
					<dim>256</dim>
					<dim>80</dim>
					<dim>80</dim>
				</port>
			</output>
		</layer>
		<layer id="297" name="FeatureExtractor/resnet_v1_50/fpn/projection_1/weights/read/_276__cf__279/Output_0/Data__const" type="Const" version="opset1">
			<data element_type="f32" offset="97073708" shape="256,512,1,1" size="524288"/>
			<output>
				<port id="1" precision="FP32">
					<dim>256</dim>
					<dim>512</dim>
					<dim>1</dim>
					<dim>1</dim>
				</port>
			</output>
		</layer>
		<layer id="298" name="FeatureExtractor/resnet_v1_50/fpn/top_down/projection_1/Conv2D" type="Convolution" version="opset1">
			<data auto_pad="same_upper" dilations="1,1" output_padding="0,0" pads_begin="0,0" pads_end="0,0" strides="1,1"/>
			<input>
				<port id="0">
					<dim>1</dim>
					<dim>512</dim>
					<dim>80</dim>
					<dim>80</dim>
				</port>
				<port id="1">
					<dim>256</dim>
					<dim>512</dim>
					<dim>1</dim>
					<dim>1</dim>
				</port>
			</input>
			<output>
				<port id="2" precision="FP32">
					<dim>1</dim>
					<dim>256</dim>
					<dim>80</dim>
					<dim>80</dim>
				</port>
			</output>
		</layer>
		<layer id="299" name="FeatureExtractor/resnet_v1_50/fpn/projection_1/biases/read/_275__cf__278/Output_0/Data_/copy_const" type="Const" version="opset1">
			<data element_type="f32" offset="97597996" shape="1,256,1,1" size="1024"/>
			<output>
				<port id="1" precision="FP32">
					<dim>1</dim>
					<dim>256</dim>
					<dim>1</dim>
					<dim>1</dim>
				</port>
			</output>
		</layer>
		<layer id="300" name="FeatureExtractor/resnet_v1_50/fpn/top_down/projection_1/BiasAdd/Add" type="Add" version="opset1">
			<input>
				<port id="0">
					<dim>1</dim>
					<dim>256</dim>
					<dim>80</dim>
					<dim>80</dim>
				</port>
				<port id="1">
					<dim>1</dim>
					<dim>256</dim>
					<dim>1</dim>
					<dim>1</dim>
				</port>
			</input>
			<output>
				<port id="2" precision="FP32">
					<dim>1</dim>
					<dim>256</dim>
					<dim>80</dim>
					<dim>80</dim>
				</port>
			</output>
		</layer>
		<layer id="301" name="FeatureExtractor/resnet_v1_50/fpn/top_down/add_1" type="Add" version="opset1">
			<input>
				<port id="0">
					<dim>1</dim>
					<dim>256</dim>
					<dim>80</dim>
					<dim>80</dim>
				</port>
				<port id="1">
					<dim>1</dim>
					<dim>256</dim>
					<dim>80</dim>
					<dim>80</dim>
				</port>
			</input>
			<output>
				<port id="2" precision="FP32">
					<dim>1</dim>
					<dim>256</dim>
					<dim>80</dim>
					<dim>80</dim>
				</port>
			</output>
		</layer>
		<layer id="302" name="FeatureExtractor/resnet_v1_50/fpn/smoothing_1/weights/read/_285__cf__288/Output_0/Data__const" type="Const" version="opset1">
			<data element_type="f32" offset="97599020" shape="256,256,3,3" size="2359296"/>
			<output>
				<port id="1" precision="FP32">
					<dim>256</dim>
					<dim>256</dim>
					<dim>3</dim>
					<dim>3</dim>
				</port>
			</output>
		</layer>
		<layer id="303" name="FeatureExtractor/resnet_v1_50/fpn/top_down/smoothing_1/Conv2D" type="Convolution" version="opset1">
			<data auto_pad="same_upper" dilations="1,1" output_padding="0,0" pads_begin="1,1" pads_end="1,1" strides="1,1"/>
			<input>
				<port id="0">
					<dim>1</dim>
					<dim>256</dim>
					<dim>80</dim>
					<dim>80</dim>
				</port>
				<port id="1">
					<dim>256</dim>
					<dim>256</dim>
					<dim>3</dim>
					<dim>3</dim>
				</port>
			</input>
			<output>
				<port id="2" precision="FP32">
					<dim>1</dim>
					<dim>256</dim>
					<dim>80</dim>
					<dim>80</dim>
				</port>
			</output>
		</layer>
		<layer id="304" name="FeatureExtractor/resnet_v1_50/fpn/top_down/smoothing_1/Conv2D_bn_offset/Output_0/Data_/copy_const" type="Const" version="opset1">
			<data element_type="f32" offset="99958316" shape="1,256,1,1" size="1024"/>
			<output>
				<port id="1" precision="FP32">
					<dim>1</dim>
					<dim>256</dim>
					<dim>1</dim>
					<dim>1</dim>
				</port>
			</output>
		</layer>
		<layer id="305" name="FeatureExtractor/resnet_v1_50/fpn/top_down/smoothing_1/BatchNorm/FusedBatchNorm/Add" type="Add" version="opset1">
			<input>
				<port id="0">
					<dim>1</dim>
					<dim>256</dim>
					<dim>80</dim>
					<dim>80</dim>
				</port>
				<port id="1">
					<dim>1</dim>
					<dim>256</dim>
					<dim>1</dim>
					<dim>1</dim>
				</port>
			</input>
			<output>
				<port id="2" precision="FP32">
					<dim>1</dim>
					<dim>256</dim>
					<dim>80</dim>
					<dim>80</dim>
				</port>
			</output>
		</layer>
		<layer id="306" name="FeatureExtractor/resnet_v1_50/fpn/top_down/smoothing_1/Relu6" type="Clamp" version="opset1">
…
		<edge from-layer="29" from-port="1" to-layer="30" to-port="1"/>
		<edge from-layer="30" from-port="2" to-layer="32" to-port="0"/>
		<edge from-layer="31" from-port="1" to-layer="32" to-port="1"/>
		<edge from-layer="32" from-port="2" to-layer="33" to-port="0"/>
		<edge from-layer="33" from-port="1" to-layer="35" to-port="0"/>
		<edge from-layer="34" from-port="1" to-layer="35" to-port="1"/>
		<edge from-layer="35" from-port="2" to-layer="37" to-port="0"/>
		<edge from-layer="36" from-port="1" to-layer="37" to-port="1"/>
		<edge from-layer="37" from-port="2" to-layer="38" to-port="0"/>
		<edge from-layer="38" from-port="1" to-layer="40" to-port="0"/>
		<edge from-layer="39" from-port="1" to-layer="40" to-port="1"/>
		<edge from-layer="40" from-port="2" to-layer="42" to-port="0"/>
		<edge from-layer="41" from-port="1" to-layer="42" to-port="1"/>
		<edge from-layer="28" from-port="1" to-layer="43" to-port="0"/>
		<edge from-layer="42" from-port="2" to-layer="43" to-port="1"/>
		<edge from-layer="43" from-port="2" to-layer="44" to-port="0"/>
		<edge from-layer="44" from-port="1" to-layer="46" to-port="0"/>
		<edge from-layer="45" from-port="1" to-layer="46" to-port="1"/>
		<edge from-layer="46" from-port="2" to-layer="48" to-port="0"/>
		<edge from-layer="47" from-port="1" to-layer="48" to-port="1"/>
		<edge from-layer="48" from-port="2" to-layer="49" to-port="0"/>
		<edge from-layer="49" from-port="1" to-layer="51" to-port="0"/>
		<edge from-layer="50" from-port="1" to-layer="51" to-port="1"/>
		<edge from-layer="51" from-port="2" to-layer="53" to-port="0"/>
		<edge from-layer="52" from-port="1" to-layer="53" to-port="1"/>
		<edge from-layer="53" from-port="2" to-layer="54" to-port="0"/>
		<edge from-layer="54" from-port="1" to-layer="56" to-port="0"/>
		<edge from-layer="55" from-port="1" to-layer="56" to-port="1"/>
		<edge from-layer="56" from-port="2" to-layer="58" to-port="0"/>
		<edge from-layer="57" from-port="1" to-layer="58" to-port="1"/>
		<edge from-layer="44" from-port="1" to-layer="59" to-port="0"/>
		<edge from-layer="58" from-port="2" to-layer="59" to-port="1"/>
		<edge from-layer="59" from-port="2" to-layer="60" to-port="0"/>
		<edge from-layer="60" from-port="1" to-layer="61" to-port="0"/>
		<edge from-layer="61" from-port="1" to-layer="63" to-port="0"/>
		<edge from-layer="62" from-port="1" to-layer="63" to-port="1"/>
		<edge from-layer="63" from-port="2" to-layer="65" to-port="0"/>
		<edge from-layer="64" from-port="1" to-layer="65" to-port="1"/>
		<edge from-layer="61" from-port="1" to-layer="67" to-port="0"/>
		<edge from-layer="66" from-port="1" to-layer="67" to-port="1"/>
		<edge from-layer="67" from-port="2" to-layer="69" to-port="0"/>
		<edge from-layer="68" from-port="1" to-layer="69" to-port="1"/>
		<edge from-layer="69" from-port="2" to-layer="70" to-port="0"/>
		<edge from-layer="70" from-port="1" to-layer="72" to-port="0"/>
		<edge from-layer="71" from-port="1" to-layer="72" to-port="1"/>
		<edge from-layer="72" from-port="2" to-layer="74" to-port="0"/>
		<edge from-layer="73" from-port="1" to-layer="74" to-port="1"/>
		<edge from-layer="74" from-port="2" to-layer="75" to-port="0"/>
		<edge from-layer="75" from-port="1" to-layer="77" to-port="0"/>
		<edge from-layer="76" from-port="1" to-layer="77" to-port="1"/>
		<edge from-layer="77" from-port="2" to-layer="79" to-port="0"/>
		<edge from-layer="78" from-port="1" to-layer="79" to-port="1"/>
		<edge from-layer="65" from-port="2" to-layer="80" to-port="0"/>
		<edge from-layer="79" from-port="2" to-layer="80" to-port="1"/>
		<edge from-layer="80" from-port="2" to-layer="81" to-port="0"/>
		<edge from-layer="81" from-port="1" to-layer="83" to-port="0"/>
		<edge from-layer="82" from-port="1" to-layer="83" to-port="1"/>
		<edge from-layer="83" from-port="2" to-layer="85" to-port="0"/>
		<edge from-layer="84" from-port="1" to-layer="85" to-port="1"/>
		<edge from-layer="85" from-port="2" to-layer="86" to-port="0"/>
		<edge from-layer="86" from-port="1" to-layer="88" to-port="0"/>
		<edge from-layer="87" from-port="1" to-layer="88" to-port="1"/>
		<edge from-layer="88" from-port="2" to-layer="90" to-port="0"/>
		<edge from-layer="89" from-port="1" to-layer="90" to-port="1"/>
		<edge from-layer="90" from-port="2" to-layer="91" to-port="0"/>
		<edge from-layer="91" from-port="1" to-layer="93" to-port="0"/>
		<edge from-layer="92" from-port="1" to-layer="93" to-port="1"/>
		<edge from-layer="93" from-port="2" to-layer="95" to-port="0"/>
		<edge from-layer="94" from-port="1" to-layer="95" to-port="1"/>
		<edge from-layer="81" from-port="1" to-layer="96" to-port="0"/>
		<edge from-layer="95" from-port="2" to-layer="96" to-port="1"/>
		<edge from-layer="96" from-port="2" to-layer="97" to-port="0"/>
		<edge from-layer="97" from-port="1" to-layer="99" to-port="0"/>
		<edge from-layer="98" from-port="1" to-layer="99" to-port="1"/>
		<edge from-layer="99" from-port="2" to-layer="101" to-port="0"/>
		<edge from-layer="100" from-port="1" to-layer="101" to-port="1"/>
		<edge from-layer="101" from-port="2" to-layer="102" to-port="0"/>
		<edge from-layer="102" from-port="1" to-layer="104" to-port="0"/>
		<edge from-layer="103" from-port="1" to-layer="104" to-port="1"/>
		<edge from-layer="104" from-port="2" to-layer="106" to-port="0"/>
		<edge from-layer="105" from-port="1" to-layer="106" to-port="1"/>
		<edge from-layer="106" from-port="2" to-layer="107" to-port="0"/>
		<edge from-layer="107" from-port="1" to-layer="109" to-port="0"/>
		<edge from-layer="108" from-port="1" to-layer="109" to-port="1"/>
		<edge from-layer="109" from-port="2" to-layer="111" to-port="0"/>
		<edge from-layer="110" from-port="1" to-layer="111" to-port="1"/>
		<edge from-layer="97" from-port="1" to-layer="112" to-port="0"/>
		<edge from-layer="111" from-port="2" to-layer="112" to-port="1"/>
		<edge from-layer="112" from-port="2" to-layer="113" to-port="0"/>
		<edge from-layer="113" from-port="1" to-layer="115" to-port="0"/>
		<edge from-layer="114" from-port="1" to-layer="115" to-port="1"/>
		<edge from-layer="115" from-port="2" to-layer="117" to-port="0"/>
		<edge from-layer="116" from-port="1" to-layer="117" to-port="1"/>
		<edge from-layer="117" from-port="2" to-layer="118" to-port="0"/>
		<edge from-layer="118" from-port="1" to-layer="120" to-port="0"/>
		<edge from-layer="119" from-port="1" to-layer="120" to-port="1"/>
		<edge from-layer="120" from-port="2" to-layer="122" to-port="0"/>
		<edge from-layer="121" from-port="1" to-layer="122" to-port="1"/>
		<edge from-layer="122" from-port="2" to-layer="123" to-port="0"/>
		<edge from-layer="123" from-port="1" to-layer="125" to-port="0"/>
		<edge from-layer="124" from-port="1" to-layer="125" to-port="1"/>
		<edge from-layer="125" from-port="2" to-layer="127" to-port="0"/>
		<edge from-layer="126" from-port="1" to-layer="127" to-port="1"/>
		<edge from-layer="113" from-port="1" to-layer="128" to-port="0"/>
		<edge from-layer="127" from-port="2" to-layer="128" to-port="1"/>
		<edge from-layer="128" from-port="2" to-layer="129" to-port="0"/>
		<edge from-layer="129" from-port="1" to-layer="130" to-port="0"/>
		<edge from-layer="130" from-port="1" to-layer="132" to-port="0"/>
		<edge from-layer="131" from-port="1" to-layer="132" to-port="1"/>
		<edge from-layer="132" from-port="2" to-layer="134" to-port="0"/>
		<edge from-layer="133" from-port="1" to-layer="134" to-port="1"/>
		<edge from-layer="130" from-port="1" to-layer="136" to-port="0"/>
		<edge from-layer="135" from-port="1" to-layer="136" to-port="1"/>
		<edge from-layer="136" from-port="2" to-layer="138" to-port="0"/>
		<edge from-layer="137" from-port="1" to-layer="138" to-port="1"/>
		<edge from-layer="138" from-port="2" to-layer="139" to-port="0"/>
		<edge from-layer="139" from-port="1" to-layer="141" to-port="0"/>
		<edge from-layer="140" from-port="1" to-layer="141" to-port="1"/>
		<edge from-layer="141" from-port="2" to-layer="143" to-port="0"/>
		<edge from-layer="142" from-port="1" to-layer="143" to-port="1"/>
		<edge from-layer="143" from-port="2" to-layer="144" to-port="0"/>
		<edge from-layer="144" from-port="1" to-layer="146" to-port="0"/>
		<edge from-layer="145" from-port="1" to-layer="146" to-port="1"/>
		<edge from-layer="146" from-port="2" to-layer="148" to-port="0"/>
		<edge from-layer="147" from-port="1" to-layer="148" to-port="1"/>
		<edge from-layer="134" from-port="2" to-layer="149" to-port="0"/>
		<edge from-layer="148" from-port="2" to-layer="149" to-port="1"/>
		<edge from-layer="149" from-port="2" to-layer="150" to-port="0"/>
		<edge from-layer="150" from-port="1" to-layer="152" to-port="0"/>
		<edge from-layer="151" from-port="1" to-layer="152" to-port="1"/>
		<edge from-layer="152" from-port="2" to-layer="154" to-port="0"/>
		<edge from-layer="153" from-port="1" to-layer="154" to-port="1"/>
		<edge from-layer="154" from-port="2" to-layer="155" to-port="0"/>
		<edge from-layer="155" from-port="1" to-layer="157" to-port="0"/>
		<edge from-layer="156" from-port="1" to-layer="157" to-port="1"/>
		<edge from-layer="157" from-port="2" to-layer="159" to-port="0"/>
		<edge from-layer="158" from-port="1" to-layer="159" to-port="1"/>
		<edge from-layer="159" from-port="2" to-layer="160" to-port="0"/>
		<edge from-layer="160" from-port="1" to-layer="162" to-port="0"/>
		<edge from-layer="161" from-port="1" to-layer="162" to-port="1"/>
		<edge from-layer="162" from-port="2" to-layer="164" to-port="0"/>
		<edge from-layer="163" from-port="1" to-layer="164" to-port="1"/>
		<edge from-layer="150" from-port="1" to-layer="165" to-port="0"/>
		<edge from-layer="164" from-port="2" to-layer="165" to-port="1"/>
		<edge from-layer="165" from-port="2" to-layer="166" to-port="0"/>
		<edge from-layer="166" from-port="1" to-layer="168" to-port="0"/>
		<edge from-layer="167" from-port="1" to-layer="168" to-port="1"/>
		<edge from-layer="168" from-port="2" to-layer="170" to-port="0"/>
		<edge from-layer="169" from-port="1" to-layer="170" to-port="1"/>
		<edge from-layer="170" from-port="2" to-layer="171" to-port="0"/>
		<edge from-layer="171" from-port="1" to-layer="173" to-port="0"/>
		<edge from-layer="172" from-port="1" to-layer="173" to-port="1"/>
		<edge from-layer="173" from-port="2" to-layer="175" to-port="0"/>
		<edge from-layer="174" from-port="1" to-layer="175" to-port="1"/>
		<edge from-layer="175" from-port="2" to-layer="176" to-port="0"/>
		<edge from-layer="176" from-port="1" to-layer="178" to-port="0"/>
		<edge from-layer="177" from-port="1" to-layer="178" to-port="1"/>
		<edge from-layer="178" from-port="2" to-layer="180" to-port="0"/>
		<edge from-layer="179" from-port="1" to-layer="180" to-port="1"/>
		<edge from-layer="166" from-port="1" to-layer="181" to-port="0"/>
		<edge from-layer="180" from-port="2" to-layer="181" to-port="1"/>
		<edge from-layer="181" from-port="2" to-layer="182" to-port="0"/>
		<edge from-layer="182" from-port="1" to-layer="184" to-port="0"/>
		<edge from-layer="183" from-port="1" to-layer="184" to-port="1"/>
		<edge from-layer="184" from-port="2" to-layer="186" to-port="0"/>
		<edge from-layer="185" from-port="1" to-layer="186" to-port="1"/>
		<edge from-layer="186" from-port="2" to-layer="187" to-port="0"/>
		<edge from-layer="187" from-port="1" to-layer="189" to-port="0"/>
		<edge from-layer="188" from-port="1" to-layer="189" to-port="1"/>
		<edge from-layer="189" from-port="2" to-layer="191" to-port="0"/>
		<edge from-layer="190" from-port="1" to-layer="191" to-port="1"/>
		<edge from-layer="191" from-port="2" to-layer="192" to-port="0"/>
		<edge from-layer="192" from-port="1" to-layer="194" to-port="0"/>
		<edge from-layer="193" from-port="1" to-layer="194" to-port="1"/>
		<edge from-layer="194" from-port="2" to-layer="196" to-port="0"/>
		<edge from-layer="195" from-port="1" to-layer="196" to-port="1"/>
		<edge from-layer="182" from-port="1" to-layer="197" to-port="0"/>
		<edge from-layer="196" from-port="2" to-layer="197" to-port="1"/>
		<edge from-layer="197" from-port="2" to-layer="198" to-port="0"/>
		<edge from-layer="198" from-port="1" to-layer="200" to-port="0"/>
		<edge from-layer="199" from-port="1" to-layer="200" to-port="1"/>
		<edge from-layer="200" from-port="2" to-layer="202" to-port="0"/>
		<edge from-layer="201" from-port="1" to-layer="202" to-port="1"/>
		<edge from-layer="202" from-port="2" to-layer="203" to-port="0"/>
		<edge from-layer="203" from-port="1" to-layer="205" to-port="0"/>
		<edge from-layer="204" from-port="1" to-layer="205" to-port="1"/>
		<edge from-layer="205" from-port="2" to-layer="207" to-port="0"/>
		<edge from-layer="206" from-port="1" to-layer="207" to-port="1"/>
		<edge from-layer="207" from-port="2" to-layer="208" to-port="0"/>
		<edge from-layer="208" from-port="1" to-layer="210" to-port="0"/>
		<edge from-layer="209" from-port="1" to-layer="210" to-port="1"/>
		<edge from-layer="210" from-port="2" to-layer="212" to-port="0"/>
		<edge from-layer="211" from-port="1" to-layer="212" to-port="1"/>
		<edge from-layer="198" from-port="1" to-layer="213" to-port="0"/>
		<edge from-layer="212" from-port="2" to-layer="213" to-port="1"/>
		<edge from-layer="213" from-port="2" to-layer="214" to-port="0"/>
		<edge from-layer="214" from-port="1" to-layer="216" to-port="0"/>
		<edge from-layer="215" from-port="1" to-layer="216" to-port="1"/>
		<edge from-layer="216" from-port="2" to-layer="218" to-port="0"/>
		<edge from-layer="217" from-port="1" to-layer="218" to-port="1"/>
		<edge from-layer="218" from-port="2" to-layer="219" to-port="0"/>
		<edge from-layer="219" from-port="1" to-layer="221" to-port="0"/>
		<edge from-layer="220" from-port="1" to-layer="221" to-port="1"/>
		<edge from-layer="221" from-port="2" to-layer="223" to-port="0"/>
		<edge from-layer="222" from-port="1" to-layer="223" to-port="1"/>
		<edge from-layer="223" from-port="2" to-layer="224" to-port="0"/>
		<edge from-layer="224" from-port="1" to-layer="226" to-port="0"/>
		<edge from-layer="225" from-port="1" to-layer="226" to-port="1"/>
		<edge from-layer="226" from-port="2" to-layer="228" to-port="0"/>
		<edge from-layer="227" from-port="1" to-layer="228" to-port="1"/>
		<edge from-layer="214" from-port="1" to-layer="229" to-port="0"/>
		<edge from-layer="228" from-port="2" to-layer="229" to-port="1"/>
		<edge from-layer="229" from-port="2" to-layer="230" to-port="0"/>
		<edge from-layer="230" from-port="1" to-layer="231" to-port="0"/>
		<edge from-layer="231" from-port="1" to-layer="233" to-port="0"/>
		<edge from-layer="232" from-port="1" to-layer="233" to-port="1"/>
		<edge from-layer="233" from-port="2" to-layer="235" to-port="0"/>
		<edge from-layer="234" from-port="1" to-layer="235" to-port="1"/>
		<edge from-layer="231" from-port="1" to-layer="237" to-port="0"/>
		<edge from-layer="236" from-port="1" to-layer="237" to-port="1"/>
		<edge from-layer="237" from-port="2" to-layer="239" to-port="0"/>
		<edge from-layer="238" from-port="1" to-layer="239" to-port="1"/>
		<edge from-layer="239" from-port="2" to-layer="240" to-port="0"/>
		<edge from-layer="240" from-port="1" to-layer="242" to-port="0"/>
		<edge from-layer="241" from-port="1" to-layer="242" to-port="1"/>
		<edge from-layer="242" from-port="2" to-layer="244" to-port="0"/>
		<edge from-layer="243" from-port="1" to-layer="244" to-port="1"/>
		<edge from-layer="244" from-port="2" to-layer="245" to-port="0"/>
		<edge from-layer="245" from-port="1" to-layer="247" to-port="0"/>
		<edge from-layer="246" from-port="1" to-layer="247" to-port="1"/>
		<edge from-layer="247" from-port="2" to-layer="249" to-port="0"/>
		<edge from-layer="248" from-port="1" to-layer="249" to-port="1"/>
		<edge from-layer="235" from-port="2" to-layer="250" to-port="0"/>
		<edge from-layer="249" from-port="2" to-layer="250" to-port="1"/>
		<edge from-layer="250" from-port="2" to-layer="251" to-port="0"/>
		<edge from-layer="251" from-port="1" to-layer="253" to-port="0"/>
		<edge from-layer="252" from-port="1" to-layer="253" to-port="1"/>
		<edge from-layer="253" from-port="2" to-layer="255" to-port="0"/>
		<edge from-layer="254" from-port="1" to-layer="255" to-port="1"/>
		<edge from-layer="255" from-port="2" to-layer="256" to-port="0"/>
		<edge from-layer="256" from-port="1" to-layer="258" to-port="0"/>
		<edge from-layer="257" from-port="1" to-layer="258" to-port="1"/>
		<edge from-layer="258" from-port="2" to-layer="260" to-port="0"/>
		<edge from-layer="259" from-port="1" to-layer="260" to-port="1"/>
		<edge from-layer="260" from-port="2" to-layer="261" to-port="0"/>
		<edge from-layer="261" from-port="1" to-layer="263" to-port="0"/>
		<edge from-layer="262" from-port="1" to-layer="263" to-port="1"/>
		<edge from-layer="263" from-port="2" to-layer="265" to-port="0"/>
		<edge from-layer="264" from-port="1" to-layer="265" to-port="1"/>
		<edge from-layer="251" from-port="1" to-layer="266" to-port="0"/>
		<edge from-layer="265" from-port="2" to-layer="266" to-port="1"/>
		<edge from-layer="266" from-port="2" to-layer="267" to-port="0"/>
		<edge from-layer="267" from-port="1" to-layer="269" to-port="0"/>
		<edge from-layer="268" from-port="1" to-layer="269" to-port="1"/>
		<edge from-layer="269" from-port="2" to-layer="271" to-port="0"/>
		<edge from-layer="270" from-port="1" to-layer="271" to-port="1"/>
		<edge from-layer="271" from-port="2" to-layer="272" to-port="0"/>
		<edge from-layer="272" from-port="1" to-layer="274" to-port="0"/>
		<edge from-layer="273" from-port="1" to-layer="274" to-port="1"/>
		<edge from-layer="274" from-port="2" to-layer="276" to-port="0"/>
		<edge from-layer="275" from-port="1" to-layer="276" to-port="1"/>
		<edge from-layer="276" from-port="2" to-layer="277" to-port="0"/>
		<edge from-layer="277" from-port="1" to-layer="279" to-port="0"/>
		<edge from-layer="278" from-port="1" to-layer="279" to-port="1"/>
		<edge from-layer="279" from-port="2" to-layer="281" to-port="0"/>
		<edge from-layer="280" from-port="1" to-layer="281" to-port="1"/>
		<edge from-layer="267" from-port="1" to-layer="282" to-port="0"/>
		<edge from-layer="281" from-port="2" to-layer="282" to-port="1"/>
		<edge from-layer="282" from-port="2" to-layer="283" to-port="0"/>
		<edge from-layer="283" from-port="1" to-layer="285" to-port="0"/>
		<edge from-layer="284" from-port="1" to-layer="285" to-port="1"/>
		<edge from-layer="285" from-port="2" to-layer="287" to-port="0"/>
		<edge from-layer="286" from-port="1" to-layer="287" to-port="1"/>
		<edge from-layer="287" from-port="2" to-layer="289" to-port="0"/>
		<edge from-layer="288" from-port="1" to-layer="289" to-port="1"/>
		<edge from-layer="230" from-port="1" to-layer="291" to-port="0"/>
		<edge from-layer="290" from-port="1" to-layer="291" to-port="1"/>
		<edge from-layer="291" from-port="2" to-layer="293" to-port="0"/>
		<edge from-layer="292" from-port="1" to-layer="293" to-port="1"/>
		<edge from-layer="289" from-port="2" to-layer="294" to-port="0"/>
		<edge from-layer="293" from-port="2" to-layer="294" to-port="1"/>
		<edge from-layer="294" from-port="2" to-layer="296" to-port="0"/>
		<edge from-layer="295" from-port="1" to-layer="296" to-port="1"/>
		<edge from-layer="129" from-port="1" to-layer="298" to-port="0"/>
		<edge from-layer="297" from-port="1" to-layer="298" to-port="1"/>
		<edge from-layer="298" from-port="2" to-layer="300" to-port="0"/>
		<edge from-layer="299" from-port="1" to-layer="300" to-port="1"/>
		<edge from-layer="296" from-port="2" to-layer="301" to-port="0"/>
		<edge from-layer="300" from-port="2" to-layer="301" to-port="1"/>
		<edge from-layer="301" from-port="2" to-layer="303" to-port="0"/>
		<edge from-layer="302" from-port="1" to-layer="303" to-port="1"/>
		<edge from-layer="303" from-port="2" to-layer="305" to-port="0"/>
		<edge from-layer="304" from-port="1" to-layer="305" to-port="1"/>
		<edge from-layer="305" from-port="2" to-layer="306" to-port="0"/>
		<edge from-layer="306" from-port="1" to-layer="308" to-port="0"/>
		<edge from-layer="307" from-port="1" to-layer="308" to-port="1"/>
		<edge from-layer="308" from-port="2" to-layer="310" to-port="0"/>
		<edge from-layer="309" from-port="1" to-layer="310" to-port="1"/>
		<edge from-layer="310" from-port="2" to-layer="311" to-port="0"/>
		<edge from-layer="311" from-port="1" to-layer="313" to-port="0"/>
		<edge from-layer="312" from-port="1" to-layer="313" to-port="1"/>
		<edge from-layer="313" from-port="2" to-layer="315" to-port="0"/>
		<edge from-layer="314" from-port="1" to-layer="315" to-port="1"/>
		<edge from-layer="315" from-port="2" to-layer="316" to-port="0"/>
		<edge from-layer="316" from-port="1" to-layer="318" to-port="0"/>
		<edge from-layer="317" from-port="1" to-layer="318" to-port="1"/>
		<edge from-layer="318" from-port="2" to-layer="320" to-port="0"/>
		<edge from-layer="319" from-port="1" to-layer="320" to-port="1"/>
		<edge from-layer="320" from-port="2" to-layer="321" to-port="0"/>
		<edge from-layer="321" from-port="1" to-layer="323" to-port="0"/>
		<edge from-layer="322" from-port="1" to-layer="323" to-port="1"/>
		<edge from-layer="323" from-port="2" to-layer="325" to-port="0"/>
		<edge from-layer="324" from-port="1" to-layer="325" to-port="1"/>
		<edge from-layer="325" from-port="2" to-layer="326" to-port="0"/>
		<edge from-layer="326" from-port="1" to-layer="328" to-port="0"/>
		<edge from-layer="327" from-port="1" to-layer="328" to-port="1"/>
		<edge from-layer="328" from-port="2" to-layer="330" to-port="0"/>
		<edge from-layer="329" from-port="1" to-layer="330" to-port="1"/>
		<edge from-layer="330" from-port="2" to-layer="332" to-port="0"/>
		<edge from-layer="331" from-port="1" to-layer="332" to-port="1"/>
		<edge from-layer="332" from-port="2" to-layer="334" to-port="0"/>
		<edge from-layer="333" from-port="1" to-layer="334" to-port="1"/>
		<edge from-layer="294" from-port="2" to-layer="336" to-port="0"/>
		<edge from-layer="335" from-port="1" to-layer="336" to-port="1"/>
		<edge from-layer="336" from-port="2" to-layer="338" to-port="0"/>
		<edge from-layer="337" from-port="1" to-layer="338" to-port="1"/>
		<edge from-layer="338" from-port="2" to-layer="339" to-port="0"/>
		<edge from-layer="339" from-port="1" to-layer="341" to-port="0"/>
		<edge from-layer="340" from-port="1" to-layer="341" to-port="1"/>
		<edge from-layer="341" from-port="2" to-layer="343" to-port="0"/>
		<edge from-layer="342" from-port="1" to-layer="343" to-port="1"/>
		<edge from-layer="343" from-port="2" to-layer="344" to-port="0"/>
		<edge from-layer="344" from-port="1" to-layer="346" to-port="0"/>
		<edge from-layer="345" from-port="1" to-layer="346" to-port="1"/>
		<edge from-layer="346" from-port="2" to-layer="348" to-port="0"/>
		<edge from-layer="347" from-port="1" to-layer="348" to-port="1"/>
		<edge from-layer="348" from-port="2" to-layer="349" to-port="0"/>
		<edge from-layer="349" from-port="1" to-layer="351" to-port="0"/>
		<edge from-layer="350" from-port="1" to-layer="351" to-port="1"/>
		<edge from-layer="351" from-port="2" to-layer="353" to-port="0"/>
		<edge from-layer="352" from-port="1" to-layer="353" to-port="1"/>
		<edge from-layer="353" from-port="2" to-layer="354" to-port="0"/>
		<edge from-layer="354" from-port="1" to-layer="356" to-port="0"/>
		<edge from-layer="355" from-port="1" to-layer="356" to-port="1"/>
		<edge from-layer="356" from-port="2" to-layer="358" to-port="0"/>
		<edge from-layer="357" from-port="1" to-layer="358" to-port="1"/>
		<edge from-layer="358" from-port="2" to-layer="359" to-port="0"/>
		<edge from-layer="359" from-port="1" to-layer="361" to-port="0"/>
		<edge from-layer="360" from-port="1" to-layer="361" to-port="1"/>
		<edge from-layer="361" from-port="2" to-layer="363" to-port="0"/>
		<edge from-layer="362" from-port="1" to-layer="363" to-port="1"/>
		<edge from-layer="363" from-port="2" to-layer="365" to-port="0"/>
		<edge from-layer="364" from-port="1" to-layer="365" to-port="1"/>
		<edge from-layer="365" from-port="2" to-layer="367" to-port="0"/>
		<edge from-layer="366" from-port="1" to-layer="367" to-port="1"/>
		<edge from-layer="287" from-port="2" to-layer="369" to-port="0"/>
		<edge from-layer="368" from-port="1" to-layer="369" to-port="1"/>
		<edge from-layer="369" from-port="2" to-layer="371" to-port="0"/>
		<edge from-layer="370" from-port="1" to-layer="371" to-port="1"/>
		<edge from-layer="371" from-port="2" to-layer="372" to-port="0"/>
		<edge from-layer="372" from-port="1" to-layer="374" to-port="0"/>
		<edge from-layer="373" from-port="1" to-layer="374" to-port="1"/>
		<edge from-layer="374" from-port="2" to-layer="376" to-port="0"/>
		<edge from-layer="375" from-port="1" to-layer="376" to-port="1"/>
		<edge from-layer="376" from-port="2" to-layer="377" to-port="0"/>
		<edge from-layer="377" from-port="1" to-layer="379" to-port="0"/>
		<edge from-layer="378" from-port="1" to-layer="379" to-port="1"/>
		<edge from-layer="379" from-port="2" to-layer="381" to-port="0"/>
		<edge from-layer="380" from-port="1" to-layer="381" to-port="1"/>
		<edge from-layer="381" from-port="2" to-layer="382" to-port="0"/>
		<edge from-layer="382" from-port="1" to-layer="384" to-port="0"/>
		<edge from-layer="383" from-port="1" to-layer="384" to-port="1"/>
		<edge from-layer="384" from-port="2" to-layer="386" to-port="0"/>
		<edge from-layer="385" from-port="1" to-layer="386" to-port="1"/>
		<edge from-layer="386" from-port="2" to-layer="387" to-port="0"/>
		<edge from-layer="387" from-port="1" to-layer="389" to-port="0"/>
		<edge from-layer="388" from-port="1" to-layer="389" to-port="1"/>
		<edge from-layer="389" from-port="2" to-layer="391" to-port="0"/>
		<edge from-layer="390" from-port="1" to-layer="391" to-port="1"/>
		<edge from-layer="391" from-port="2" to-layer="393" to-port="0"/>
		<edge from-layer="392" from-port="1" to-layer="393" to-port="1"/>
		<edge from-layer="393" from-port="2" to-layer="395" to-port="0"/>
		<edge from-layer="394" from-port="1" to-layer="395" to-port="1"/>
		<edge from-layer="287" from-port="2" to-layer="397" to-port="0"/>
		<edge from-layer="396" from-port="1" to-layer="397" to-port="1"/>
		<edge from-layer="397" from-port="2" to-layer="399" to-port="0"/>
		<edge from-layer="398" from-port="1" to-layer="399" to-port="1"/>
		<edge from-layer="399" from-port="2" to-layer="400" to-port="0"/>
		<edge from-layer="400" from-port="1" to-layer="402" to-port="0"/>
		<edge from-layer="401" from-port="1" to-layer="402" to-port="1"/>
		<edge from-layer="402" from-port="2" to-layer="404" to-port="0"/>
		<edge from-layer="403" from-port="1" to-layer="404" to-port="1"/>
		<edge from-layer="404" from-port="2" to-layer="405" to-port="0"/>
		<edge from-layer="405" from-port="1" to-layer="407" to-port="0"/>
		<edge from-layer="406" from-port="1" to-layer="407" to-port="1"/>
		<edge from-layer="407" from-port="2" to-layer="409" to-port="0"/>
		<edge from-layer="408" from-port="1" to-layer="409" to-port="1"/>
		<edge from-layer="409" from-port="2" to-layer="410" to-port="0"/>
		<edge from-layer="410" from-port="1" to-layer="412" to-port="0"/>
		<edge from-layer="411" from-port="1" to-layer="412" to-port="1"/>
		<edge from-layer="412" from-port="2" to-layer="414" to-port="0"/>
		<edge from-layer="413" from-port="1" to-layer="414" to-port="1"/>
		<edge from-layer="414" from-port="2" to-layer="415" to-port="0"/>
		<edge from-layer="415" from-port="1" to-layer="417" to-port="0"/>
		<edge from-layer="416" from-port="1" to-layer="417" to-port="1"/>
		<edge from-layer="417" from-port="2" to-layer="419" to-port="0"/>
		<edge from-layer="418" from-port="1" to-layer="419" to-port="1"/>
		<edge from-layer="419" from-port="2" to-layer="420" to-port="0"/>
		<edge from-layer="420" from-port="1" to-layer="422" to-port="0"/>
		<edge from-layer="421" from-port="1" to-layer="422" to-port="1"/>
		<edge from-layer="422" from-port="2" to-layer="424" to-port="0"/>
		<edge from-layer="423" from-port="1" to-layer="424" to-port="1"/>
		<edge from-layer="424" from-port="2" to-layer="426" to-port="0"/>
		<edge from-layer="425" from-port="1" to-layer="426" to-port="1"/>
		<edge from-layer="426" from-port="2" to-layer="428" to-port="0"/>
		<edge from-layer="427" from-port="1" to-layer="428" to-port="1"/>
		<edge from-layer="400" from-port="1" to-layer="430" to-port="0"/>
		<edge from-layer="429" from-port="1" to-layer="430" to-port="1"/>
		<edge from-layer="430" from-port="2" to-layer="432" to-port="0"/>
		<edge from-layer="431" from-port="1" to-layer="432" to-port="1"/>
		<edge from-layer="432" from-port="2" to-layer="433" to-port="0"/>
		<edge from-layer="433" from-port="1" to-layer="435" to-port="0"/>
		<edge from-layer="434" from-port="1" to-layer="435" to-port="1"/>
		<edge from-layer="435" from-port="2" to-layer="437" to-port="0"/>
		<edge from-layer="436" from-port="1" to-layer="437" to-port="1"/>
		<edge from-layer="437" from-port="2" to-layer="438" to-port="0"/>
		<edge from-layer="438" from-port="1" to-layer="440" to-port="0"/>
		<edge from-layer="439" from-port="1" to-layer="440" to-port="1"/>
		<edge from-layer="440" from-port="2" to-layer="442" to-port="0"/>
		<edge from-layer="441" from-port="1" to-layer="442" to-port="1"/>
		<edge from-layer="442" from-port="2" to-layer="443" to-port="0"/>
		<edge from-layer="443" from-port="1" to-layer="445" to-port="0"/>
		<edge from-layer="444" from-port="1" to-layer="445" to-port="1"/>
		<edge from-layer="445" from-port="2" to-layer="447" to-port="0"/>
		<edge from-layer="446" from-port="1" to-layer="447" to-port="1"/>
		<edge from-layer="447" from-port="2" to-layer="448" to-port="0"/>
		<edge from-layer="448" from-port="1" to-layer="450" to-port="0"/>
		<edge from-layer="449" from-port="1" to-layer="450" to-port="1"/>
		<edge from-layer="450" from-port="2" to-layer="452" to-port="0"/>
		<edge from-layer="451" from-port="1" to-layer="452" to-port="1"/>
		<edge from-layer="452" from-port="2" to-layer="453" to-port="0"/>
		<edge from-layer="453" from-port="1" to-layer="455" to-port="0"/>
		<edge from-layer="454" from-port="1" to-layer="455" to-port="1"/>
		<edge from-layer="455" from-port="2" to-layer="457" to-port="0"/>
		<edge from-layer="456" from-port="1" to-layer="457" to-port="1"/>
		<edge from-layer="457" from-port="2" to-layer="459" to-port="0"/>
		<edge from-layer="458" from-port="1" to-layer="459" to-port="1"/>
		<edge from-layer="459" from-port="2" to-layer="461" to-port="0"/>
		<edge from-layer="460" from-port="1" to-layer="461" to-port="1"/>
		<edge from-layer="334" from-port="2" to-layer="462" to-port="0"/>
		<edge from-layer="367" from-port="2" to-layer="462" to-port="1"/>
		<edge from-layer="395" from-port="2" to-layer="462" to-port="2"/>
		<edge from-layer="428" from-port="2" to-layer="462" to-port="3"/>
		<edge from-layer="461" from-port="2" to-layer="462" to-port="4"/>
		<edge from-layer="462" from-port="5" to-layer="464" to-port="0"/>
		<edge from-layer="463" from-port="1" to-layer="464" to-port="1"/>
		<edge from-layer="306" from-port="1" to-layer="466" to-port="0"/>
		<edge from-layer="465" from-port="1" to-layer="466" to-port="1"/>
		<edge from-layer="466" from-port="2" to-layer="468" to-port="0"/>
		<edge from-layer="467" from-port="1" to-layer="468" to-port="1"/>
		<edge from-layer="468" from-port="2" to-layer="469" to-port="0"/>
		<edge from-layer="469" from-port="1" to-layer="471" to-port="0"/>
		<edge from-layer="470" from-port="1" to-layer="471" to-port="1"/>
		<edge from-layer="471" from-port="2" to-layer="473" to-port="0"/>
		<edge from-layer="472" from-port="1" to-layer="473" to-port="1"/>
		<edge from-layer="473" from-port="2" to-layer="474" to-port="0"/>
		<edge from-layer="474" from-port="1" to-layer="476" to-port="0"/>
		<edge from-layer="475" from-port="1" to-layer="476" to-port="1"/>
		<edge from-layer="476" from-port="2" to-layer="478" to-port="0"/>
		<edge from-layer="477" from-port="1" to-layer="478" to-port="1"/>
		<edge from-layer="478" from-port="2" to-layer="479" to-port="0"/>
		<edge from-layer="479" from-port="1" to-layer="481" to-port="0"/>
		<edge from-layer="480" from-port="1" to-layer="481" to-port="1"/>
		<edge from-layer="481" from-port="2" to-layer="483" to-port="0"/>
		<edge from-layer="482" from-port="1" to-layer="483" to-port="1"/>
		<edge from-layer="483" from-port="2" to-layer="484" to-port="0"/>
		<edge from-layer="484" from-port="1" to-layer="486" to-port="0"/>
		<edge from-layer="485" from-port="1" to-layer="486" to-port="1"/>
		<edge from-layer="486" from-port="2" to-layer="488" to-port="0"/>
		<edge from-layer="487" from-port="1" to-layer="488" to-port="1"/>
		<edge from-layer="488" from-port="2" to-layer="490" to-port="0"/>
		<edge from-layer="489" from-port="1" to-layer="490" to-port="1"/>
		<edge from-layer="490" from-port="2" to-layer="492" to-port="0"/>
		<edge from-layer="491" from-port="1" to-layer="492" to-port="1"/>
		<edge from-layer="339" from-port="1" to-layer="494" to-port="0"/>
		<edge from-layer="493" from-port="1" to-layer="494" to-port="1"/>
		<edge from-layer="494" from-port="2" to-layer="496" to-port="0"/>
		<edge from-layer="495" from-port="1" to-layer="496" to-port="1"/>
		<edge from-layer="496" from-port="2" to-layer="497" to-port="0"/>
		<edge from-layer="497" from-port="1" to-layer="499" to-port="0"/>
		<edge from-layer="498" from-port="1" to-layer="499" to-port="1"/>
		<edge from-layer="499" from-port="2" to-layer="501" to-port="0"/>
		<edge from-layer="500" from-port="1" to-layer="501" to-port="1"/>
		<edge from-layer="501" from-port="2" to-layer="502" to-port="0"/>
		<edge from-layer="502" from-port="1" to-layer="504" to-port="0"/>
		<edge from-layer="503" from-port="1" to-layer="504" to-port="1"/>
		<edge from-layer="504" from-port="2" to-layer="506" to-port="0"/>
		<edge from-layer="505" from-port="1" to-layer="506" to-port="1"/>
		<edge from-layer="506" from-port="2" to-layer="507" to-port="0"/>
		<edge from-layer="507" from-port="1" to-layer="509" to-port="0"/>
		<edge from-layer="508" from-port="1" to-layer="509" to-port="1"/>
		<edge from-layer="509" from-port="2" to-layer="511" to-port="0"/>
		<edge from-layer="510" from-port="1" to-layer="511" to-port="1"/>
		<edge from-layer="511" from-port="2" to-layer="512" to-port="0"/>
		<edge from-layer="512" from-port="1" to-layer="514" to-port="0"/>
		<edge from-layer="513" from-port="1" to-layer="514" to-port="1"/>
		<edge from-layer="514" from-port="2" to-layer="516" to-port="0"/>
		<edge from-layer="515" from-port="1" to-layer="516" to-port="1"/>
		<edge from-layer="516" from-port="2" to-layer="518" to-port="0"/>
		<edge from-layer="517" from-port="1" to-layer="518" to-port="1"/>
		<edge from-layer="518" from-port="2" to-layer="520" to-port="0"/>
		<edge from-layer="519" from-port="1" to-layer="520" to-port="1"/>
		<edge from-layer="287" from-port="2" to-layer="522" to-port="0"/>
		<edge from-layer="521" from-port="1" to-layer="522" to-port="1"/>
		<edge from-layer="522" from-port="2" to-layer="524" to-port="0"/>
		<edge from-layer="523" from-port="1" to-layer="524" to-port="1"/>
		<edge from-layer="524" from-port="2" to-layer="525" to-port="0"/>
		<edge from-layer="525" from-port="1" to-layer="527" to-port="0"/>
		<edge from-layer="526" from-port="1" to-layer="527" to-port="1"/>
		<edge from-layer="527" from-port="2" to-layer="529" to-port="0"/>
		<edge from-layer="528" from-port="1" to-layer="529" to-port="1"/>
		<edge from-layer="529" from-port="2" to-layer="530" to-port="0"/>
		<edge from-layer="530" from-port="1" to-layer="532" to-port="0"/>
		<edge from-layer="531" from-port="1" to-layer="532" to-port="1"/>
		<edge from-layer="532" from-port="2" to-layer="534" to-port="0"/>
		<edge from-layer="533" from-port="1" to-layer="534" to-port="1"/>
		<edge from-layer="534" from-port="2" to-layer="535" to-port="0"/>
		<edge from-layer="535" from-port="1" to-layer="537" to-port="0"/>
		<edge from-layer="536" from-port="1" to-layer="537" to-port="1"/>
		<edge from-layer="537" from-port="2" to-layer="539" to-port="0"/>
		<edge from-layer="538" from-port="1" to-layer="539" to-port="1"/>
		<edge from-layer="539" from-port="2" to-layer="540" to-port="0"/>
		<edge from-layer="540" from-port="1" to-layer="542" to-port="0"/>
		<edge from-layer="541" from-port="1" to-layer="542" to-port="1"/>
		<edge from-layer="542" from-port="2" to-layer="544" to-port="0"/>
		<edge from-layer="543" from-port="1" to-layer="544" to-port="1"/>
		<edge from-layer="544" from-port="2" to-layer="546" to-port="0"/>
		<edge from-layer="545" from-port="1" to-layer="546" to-port="1"/>
		<edge from-layer="546" from-port="2" to-layer="548" to-port="0"/>
		<edge from-layer="547" from-port="1" to-layer="548" to-port="1"/>
		<edge from-layer="400" from-port="1" to-layer="550" to-port="0"/>
		<edge from-layer="549" from-port="1" to-layer="550" to-port="1"/>
		<edge from-layer="550" from-port="2" to-layer="552" to-port="0"/>
		<edge from-layer="551" from-port="1" to-layer="552" to-port="1"/>
		<edge from-layer="552" from-port="2" to-layer="553" to-port="0"/>
		<edge from-layer="553" from-port="1" to-layer="555" to-port="0"/>
		<edge from-layer="554" from-port="1" to-layer="555" to-port="1"/>
		<edge from-layer="555" from-port="2" to-layer="557" to-port="0"/>
		<edge from-layer="556" from-port="1" to-layer="557" to-port="1"/>
		<edge from-layer="557" from-port="2" to-layer="558" to-port="0"/>
		<edge from-layer="558" from-port="1" to-layer="560" to-port="0"/>
		<edge from-layer="559" from-port="1" to-layer="560" to-port="1"/>
		<edge from-layer="560" from-port="2" to-layer="562" to-port="0"/>
		<edge from-layer="561" from-port="1" to-layer="562" to-port="1"/>
		<edge from-layer="562" from-port="2" to-layer="563" to-port="0"/>
		<edge from-layer="563" from-port="1" to-layer="565" to-port="0"/>
		<edge from-layer="564" from-port="1" to-layer="565" to-port="1"/>
		<edge from-layer="565" from-port="2" to-layer="567" to-port="0"/>
		<edge from-layer="566" from-port="1" to-layer="567" to-port="1"/>
		<edge from-layer="567" from-port="2" to-layer="568" to-port="0"/>
		<edge from-layer="568" from-port="1" to-layer="570" to-port="0"/>
		<edge from-layer="569" from-port="1" to-layer="570" to-port="1"/>
		<edge from-layer="570" from-port="2" to-layer="572" to-port="0"/>
		<edge from-layer="571" from-port="1" to-layer="572" to-port="1"/>
		<edge from-layer="572" from-port="2" to-layer="574" to-port="0"/>
		<edge from-layer="573" from-port="1" to-layer="574" to-port="1"/>
		<edge from-layer="574" from-port="2" to-layer="576" to-port="0"/>
		<edge from-layer="575" from-port="1" to-layer="576" to-port="1"/>
		<edge from-layer="433" from-port="1" to-layer="578" to-port="0"/>
		<edge from-layer="577" from-port="1" to-layer="578" to-port="1"/>
		<edge from-layer="578" from-port="2" to-layer="580" to-port="0"/>
		<edge from-layer="579" from-port="1" to-layer="580" to-port="1"/>
		<edge from-layer="580" from-port="2" to-layer="581" to-port="0"/>
		<edge from-layer="581" from-port="1" to-layer="583" to-port="0"/>
		<edge from-layer="582" from-port="1" to-layer="583" to-port="1"/>
		<edge from-layer="583" from-port="2" to-layer="585" to-port="0"/>
		<edge from-layer="584" from-port="1" to-layer="585" to-port="1"/>
		<edge from-layer="585" from-port="2" to-layer="586" to-port="0"/>
		<edge from-layer="586" from-port="1" to-layer="588" to-port="0"/>
		<edge from-layer="587" from-port="1" to-layer="588" to-port="1"/>
		<edge from-layer="588" from-port="2" to-layer="590" to-port="0"/>
		<edge from-layer="589" from-port="1" to-layer="590" to-port="1"/>
		<edge from-layer="590" from-port="2" to-layer="591" to-port="0"/>
		<edge from-layer="591" from-port="1" to-layer="593" to-port="0"/>
		<edge from-layer="592" from-port="1" to-layer="593" to-port="1"/>
		<edge from-layer="593" from-port="2" to-layer="595" to-port="0"/>
		<edge from-layer="594" from-port="1" to-layer="595" to-port="1"/>
		<edge from-layer="595" from-port="2" to-layer="596" to-port="0"/>
		<edge from-layer="596" from-port="1" to-layer="598" to-port="0"/>
		<edge from-layer="597" from-port="1" to-layer="598" to-port="1"/>
		<edge from-layer="598" from-port="2" to-layer="600" to-port="0"/>
		<edge from-layer="599" from-port="1" to-layer="600" to-port="1"/>
		<edge from-layer="600" from-port="2" to-layer="602" to-port="0"/>
		<edge from-layer="601" from-port="1" to-layer="602" to-port="1"/>
		<edge from-layer="602" from-port="2" to-layer="604" to-port="0"/>
		<edge from-layer="603" from-port="1" to-layer="604" to-port="1"/>
		<edge from-layer="492" from-port="2" to-layer="605" to-port="0"/>
		<edge from-layer="520" from-port="2" to-layer="605" to-port="1"/>
		<edge from-layer="548" from-port="2" to-layer="605" to-port="2"/>
		<edge from-layer="576" from-port="2" to-layer="605" to-port="3"/>
		<edge from-layer="604" from-port="2" to-layer="605" to-port="4"/>
		<edge from-layer="605" from-port="5" to-layer="607" to-port="0"/>
		<edge from-layer="606" from-port="1" to-layer="607" to-port="1"/>
		<edge from-layer="607" from-port="2" to-layer="608" to-port="0"/>
		<edge from-layer="608" from-port="1" to-layer="610" to-port="0"/>
		<edge from-layer="609" from-port="1" to-layer="610" to-port="1"/>
		<edge from-layer="330" from-port="2" to-layer="611" to-port="0"/>
		<edge from-layer="611" from-port="1" to-layer="612" to-port="0"/>
		<edge from-layer="612" from-port="1" to-layer="616" to-port="0"/>
		<edge from-layer="613" from-port="1" to-layer="616" to-port="1"/>
		<edge from-layer="614" from-port="1" to-layer="616" to-port="2"/>
		<edge from-layer="615" from-port="1" to-layer="616" to-port="3"/>
		<edge from-layer="616" from-port="4" to-layer="617" to-port="0"/>
		<edge from-layer="0" from-port="0" to-layer="618" to-port="0"/>
		<edge from-layer="618" from-port="1" to-layer="619" to-port="0"/>
		<edge from-layer="619" from-port="1" to-layer="623" to-port="0"/>
		<edge from-layer="620" from-port="1" to-layer="623" to-port="1"/>
		<edge from-layer="621" from-port="1" to-layer="623" to-port="2"/>
		<edge from-layer="622" from-port="1" to-layer="623" to-port="3"/>
		<edge from-layer="623" from-port="4" to-layer="624" to-port="0"/>
		<edge from-layer="617" from-port="1" to-layer="625" to-port="0"/>
		<edge from-layer="624" from-port="1" to-layer="625" to-port="1"/>
		<edge from-layer="625" from-port="2" to-layer="627" to-port="0"/>
		<edge from-layer="626" from-port="1" to-layer="627" to-port="1"/>
		<edge from-layer="363" from-port="2" to-layer="628" to-port="0"/>
		<edge from-layer="628" from-port="1" to-layer="629" to-port="0"/>
		<edge from-layer="629" from-port="1" to-layer="633" to-port="0"/>
		<edge from-layer="630" from-port="1" to-layer="633" to-port="1"/>
		<edge from-layer="631" from-port="1" to-layer="633" to-port="2"/>
		<edge from-layer="632" from-port="1" to-layer="633" to-port="3"/>
		<edge from-layer="633" from-port="4" to-layer="634" to-port="0"/>
		<edge from-layer="0" from-port="0" to-layer="635" to-port="0"/>
		<edge from-layer="635" from-port="1" to-layer="636" to-port="0"/>
		<edge from-layer="636" from-port="1" to-layer="640" to-port="0"/>
		<edge from-layer="637" from-port="1" to-layer="640" to-port="1"/>
		<edge from-layer="638" from-port="1" to-layer="640" to-port="2"/>
		<edge from-layer="639" from-port="1" to-layer="640" to-port="3"/>
		<edge from-layer="640" from-port="4" to-layer="641" to-port="0"/>
		<edge from-layer="634" from-port="1" to-layer="642" to-port="0"/>
		<edge from-layer="641" from-port="1" to-layer="642" to-port="1"/>
		<edge from-layer="642" from-port="2" to-layer="644" to-port="0"/>
		<edge from-layer="643" from-port="1" to-layer="644" to-port="1"/>
		<edge from-layer="391" from-port="2" to-layer="645" to-port="0"/>
		<edge from-layer="645" from-port="1" to-layer="646" to-port="0"/>
		<edge from-layer="646" from-port="1" to-layer="650" to-port="0"/>
		<edge from-layer="647" from-port="1" to-layer="650" to-port="1"/>
		<edge from-layer="648" from-port="1" to-layer="650" to-port="2"/>
		<edge from-layer="649" from-port="1" to-layer="650" to-port="3"/>
		<edge from-layer="650" from-port="4" to-layer="651" to-port="0"/>
		<edge from-layer="0" from-port="0" to-layer="652" to-port="0"/>
		<edge from-layer="652" from-port="1" to-layer="653" to-port="0"/>
		<edge from-layer="653" from-port="1" to-layer="657" to-port="0"/>
		<edge from-layer="654" from-port="1" to-layer="657" to-port="1"/>
		<edge from-layer="655" from-port="1" to-layer="657" to-port="2"/>
		<edge from-layer="656" from-port="1" to-layer="657" to-port="3"/>
		<edge from-layer="657" from-port="4" to-layer="658" to-port="0"/>
		<edge from-layer="651" from-port="1" to-layer="659" to-port="0"/>
		<edge from-layer="658" from-port="1" to-layer="659" to-port="1"/>
		<edge from-layer="659" from-port="2" to-layer="661" to-port="0"/>
		<edge from-layer="660" from-port="1" to-layer="661" to-port="1"/>
		<edge from-layer="424" from-port="2" to-layer="662" to-port="0"/>
		<edge from-layer="662" from-port="1" to-layer="663" to-port="0"/>
		<edge from-layer="663" from-port="1" to-layer="667" to-port="0"/>
		<edge from-layer="664" from-port="1" to-layer="667" to-port="1"/>
		<edge from-layer="665" from-port="1" to-layer="667" to-port="2"/>
		<edge from-layer="666" from-port="1" to-layer="667" to-port="3"/>
		<edge from-layer="667" from-port="4" to-layer="668" to-port="0"/>
		<edge from-layer="0" from-port="0" to-layer="669" to-port="0"/>
		<edge from-layer="669" from-port="1" to-layer="670" to-port="0"/>
		<edge from-layer="670" from-port="1" to-layer="674" to-port="0"/>
		<edge from-layer="671" from-port="1" to-layer="674" to-port="1"/>
		<edge from-layer="672" from-port="1" to-layer="674" to-port="2"/>
		<edge from-layer="673" from-port="1" to-layer="674" to-port="3"/>
		<edge from-layer="674" from-port="4" to-layer="675" to-port="0"/>
		<edge from-layer="668" from-port="1" to-layer="676" to-port="0"/>
		<edge from-layer="675" from-port="1" to-layer="676" to-port="1"/>
		<edge from-layer="676" from-port="2" to-layer="678" to-port="0"/>
		<edge from-layer="677" from-port="1" to-layer="678" to-port="1"/>
		<edge from-layer="457" from-port="2" to-layer="679" to-port="0"/>
		<edge from-layer="679" from-port="1" to-layer="680" to-port="0"/>
		<edge from-layer="680" from-port="1" to-layer="684" to-port="0"/>
		<edge from-layer="681" from-port="1" to-layer="684" to-port="1"/>
		<edge from-layer="682" from-port="1" to-layer="684" to-port="2"/>
		<edge from-layer="683" from-port="1" to-layer="684" to-port="3"/>
		<edge from-layer="684" from-port="4" to-layer="685" to-port="0"/>
		<edge from-layer="0" from-port="0" to-layer="686" to-port="0"/>
		<edge from-layer="686" from-port="1" to-layer="687" to-port="0"/>
		<edge from-layer="687" from-port="1" to-layer="691" to-port="0"/>
		<edge from-layer="688" from-port="1" to-layer="691" to-port="1"/>
		<edge from-layer="689" from-port="1" to-layer="691" to-port="2"/>
		<edge from-layer="690" from-port="1" to-layer="691" to-port="3"/>
		<edge from-layer="691" from-port="4" to-layer="692" to-port="0"/>
		<edge from-layer="685" from-port="1" to-layer="693" to-port="0"/>
		<edge from-layer="692" from-port="1" to-layer="693" to-port="1"/>
		<edge from-layer="693" from-port="2" to-layer="695" to-port="0"/>
		<edge from-layer="694" from-port="1" to-layer="695" to-port="1"/>
		<edge from-layer="627" from-port="2" to-layer="696" to-port="0"/>
		<edge from-layer="644" from-port="2" to-layer="696" to-port="1"/>
		<edge from-layer="661" from-port="2" to-layer="696" to-port="2"/>
		<edge from-layer="678" from-port="2" to-layer="696" to-port="3"/>
		<edge from-layer="695" from-port="2" to-layer="696" to-port="4"/>
		<edge from-layer="464" from-port="2" to-layer="697" to-port="0"/>
		<edge from-layer="610" from-port="2" to-layer="697" to-port="1"/>
		<edge from-layer="696" from-port="5" to-layer="697" to-port="2"/>
		<edge from-layer="697" from-port="3" to-layer="698" to-port="0"/>
	</edges>
	<meta_data>
		<MO_version value="2020.2.0-60-g0bc66e26ff"/>
		<cli_parameters>
			<blobs_as_inputs value="True"/>
			<caffe_parser_path value="DIR"/>
			<data_type value="float"/>
			<disable_nhwc_to_nchw value="False"/>
			<disable_omitting_optional value="False"/>
			<disable_resnet_optimization value="False"/>
			<disable_weights_compression value="False"/>
			<enable_concat_optimization value="False"/>
			<enable_flattening_nested_params value="False"/>
			<enable_ssd_gluoncv value="False"/>
			<extensions value="DIR"/>
			<framework value="tf"/>
			<freeze_placeholder_with_value value="{}"/>
			<generate_deprecated_IR_V2 value="False"/>
			<generate_deprecated_IR_V7 value="False"/>
			<generate_experimental_IR_V10 value="True"/>
			<input_model value="DIR/frozen_inference_graph.pb"/>
			<input_model_is_text value="False"/>
			<k value="DIR/CustomLayersMapping.xml"/>
			<keep_quantize_ops_in_IR value="True"/>
			<keep_shape_ops value="True"/>
			<legacy_mxnet_model value="False"/>
			<log_level value="ERROR"/>
			<mean_scale_values value="{}"/>
			<mean_values value="()"/>
			<model_name value="frozen_inference_graph"/>
			<move_to_preprocess value="False"/>
			<output_dir value="DIR"/>
			<placeholder_data_types value="{}"/>
			<progress value="False"/>
			<remove_memory value="False"/>
			<remove_output_softmax value="False"/>
			<reverse_input_channels value="True"/>
			<save_params_from_nd value="False"/>
			<scale_values value="()"/>
			<silent value="False"/>
			<stream_output value="False"/>
			<tensorflow_object_detection_api_pipeline_config value="DIR/pipeline.config"/>
			<tensorflow_use_custom_operations_config value="DIR/ssd_v2_support.json"/>
			<transformations_config value="DIR/ssd_v2_support.json"/>
			<unset unset_cli_parameters="batch, counts, disable_fusing, disable_gfusing, finegrain_fusing, input, input_checkpoint, input_meta_graph, input_proto, input_shape, input_symbol, mean_file, mean_file_offsets, nd_prefix_name, output, placeholder_shapes, pretrained_model_name, saved_model_dir, saved_model_tags, scale, tensorboard_logdir, tensorflow_custom_layer_libraries, tensorflow_custom_operations_config_update"/>
		</cli_parameters>
	</meta_data>
</net>
